assets/quantized_models/bonuses.tflite (tflite, 20664 bytes, 10 tensors)

model_9/conv2d_16/Conv2D/ReadVariableOp f4 [16, 3, 3, 3]
000000 e3 7a 66 3e 28 89 d6 bb d3 01 fa bd 23 21 4b 3e
       0.22507815 -0.006547112 -0.12207379 0.1983686
000010 46 eb a1 3c 8f df 33 3e c6 3a ec bd 3a 53 ff 3d
       0.019765507 0.1756575 -0.11534648 0.12467046
000020 66 fd a8 bd 9a 7f d5 3d 1e 9b 39 bd 07 72 eb 3c
       -0.08251457 0.10424729 -0.045313947 0.028740896
000030 32 bc 27 3e 53 57 d7 3d 8e df d1 bd fe 1e 5b bd
       0.16380385 0.10514703 -0.10247718 -0.053496353
000040 6f 97 be 3d 2c 7a 23 3e 21 dc c3 bb 25 21 a2 bd
       0.093062274 0.15964574 -0.005977169 -0.07916478
000050 1b 05 f8 3d 44 61 4e 3e 43 df 07 be 5a 80 a7 3c
       0.12110349 0.20154291 -0.13268761 0.020446945
000060 80 97 a6 3d 63 75 4e bd 93 f5 4d bd 32 51 29 bc
       0.08134365 -0.050404917 -0.050283026 -0.0103343
000070 07 9e 84 bd 59 86 5a be 17 6c 92 3d d8 d0 e1 bd
       -0.06475454 -0.21340312 0.07149523 -0.11026162
000080 c4 62 e0 3d 51 ac 6e 3d e0 5f 68 3d f8 5a 3c be
       0.10956338 0.058269802 0.05673206 -0.18394077
000090 f6 13 b1 3d 2d 33 2d 3e b3 d2 b5 3d 6f d1 a5 bd
       0.08646385 0.16914053 0.08878078 -0.08096587
0000a0 c4 0f 99 3d 6d 34 49 be 32 f4 61 bd 05 88 7d bd
       0.0747371 -0.19648905 -0.055164523 -0.061897296
0000b0 4a 2a 86 3d 26 60 1f bc c0 e9 38 3e ef f4 ec 3d
       0.06551035 -0.009727513 0.18057919 0.11570155
0000c0 5f 44 2f be 08 a4 02 3e 1b 2e 14 be 92 70 14 be
       -0.17115925 0.12757885 -0.14470713 -0.14496067
0000d0 45 50 b0 bd 2b 3d 59 be d8 44 48 be 6d 7a 19 3d
       -0.0860906 -0.2121474 -0.19557512 0.03747027
0000e0 64 13 6b be 51 2e 34 3c 11 ea 7d 3d e6 97 2f 3c
       -0.22956616 0.010997371 0.0619908 0.010717368
0000f0 1a 2b 70 3d bc c8 15 bc dd 79 49 bd fa 69 5f bd
       0.058634855 -0.009142097 -0.049188484 -0.054544427
000100 4f a3 2a bd 4d 73 70 bd d4 27 9e 3c 58 93 83 bd
       -0.04165965 -0.05870371 0.0193061 -0.06424588
000110 ca 43 4f be f1 7d 3d be 30 96 39 3e 02 25 df bd
       -0.20240703 -0.18505074 0.18123698 -0.108957306
000120 b9 7e 9f bd dd a9 53 bd 8a 06 07 3d 08 ef 29 be
       -0.07787842 -0.051675666 0.03296522 -0.1659509
000130 4d 50 99 bc 7e 2e 3d be 49 d4 da bb 8a 16 f5 3d
       -0.018715048 -0.18474767 -0.0066781384 0.119671896
000140 4d 78 2b bd 3a 8e 18 3d 09 44 07 3e 47 c4 6b bd
       -0.041862775 0.037245013 0.13209547 -0.05756023
000150 ef 48 23 bc a2 12 1b 3e a4 ff 24 3e 35 03 f3 bd
       -0.009966119 0.15143827 0.16113144 -0.11865846
000160 7a dd 67 3e c7 5c cc bc fb 24 4f bd 89 d2 42 3e
       0.2264308 -0.024946583 -0.050572377 0.19025625
000170 80 d5 37 be 57 be 3d be fa 38 f9 3d 86 a7 43 be
       -0.17952538 -0.1852964 0.121690705 -0.19106874
000180 64 e9 0c 3e 2a 0e 64 3d c1 0f 11 3e b4 0b 0a be
       0.13760906 0.05567757 0.14166166 -0.13481027
000190 0c 8c b4 3b 4c f3 3c bd 5a 80 94 bd cc 8d e2 3d
       0.005509859 -0.046130463 -0.072510436 0.11062202
0001a0 c2 e2 1d 3e a4 4c 8d 3b b4 8d e9 3d 29 90 0d bd
       0.15418532 0.004312115 0.11403981 -0.03456131
0001b0 44 52 a7 3d ea a3 b5 bd 65 5a 0d be 4b fc c4 3d
       0.08169988 -0.08869155 -0.13804014 0.096184336
0001c0 45 da 31 3e 9c 3a 96 3d 60 40 f5 bd 84 21 07 be
       0.1736842 0.073353976 -0.11975169 -0.13196379
0001d0 23 a4 27 be 88 d3 3a 3e 41 d8 bf 3d 22 66 d2 bc
       -0.16371207 0.18244755 0.09367419 -0.025683466
0001e0 86 90 31 3e 12 87 64 3d e7 82 0c be c3 d2 e9 bd
       0.17340288 0.055792876 -0.1372181 -0.11417153
0001f0 f7 68 40 3e 98 37 c9 3d 1a fd 25 3e a9 07 b6 3d
       0.18790041 0.09825057 0.16209832 0.0888818
000200 52 38 01 3e 21 96 ae bb 36 61 b7 3c 97 20 07 3e
       0.1261914 -0.0053279554 0.022385221 0.13196026
000210 42 39 2a 3e 53 f2 4b bd d1 7b 44 be 6c be fa bd
       0.16623405 -0.049791645 -0.19187857 -0.12243351
000220 45 69 31 be 69 de bf 3d f4 b6 63 be b8 53 3c bc
       -0.17325313 0.09368593 -0.2223776 -0.0114945695
000230 c0 40 00 bd 64 a1 ce 3d 6f 52 79 bc 55 a3 f4 bc
       -0.03131175 0.100893766 -0.015217408 -0.029863039
000240 52 b1 fa bd 2f 6f 7b 3d 66 61 db 3d a0 07 e8 bd
       -0.122408524 0.06138533 0.10711937 -0.11329579
000250 05 2d 27 3e 0d e2 69 bc 23 0f 1a be c0 ea 3f bc
       0.16325767 -0.014275086 -0.15044837 -0.011713684
000260 99 4e 46 bd c8 3b 0b 3d fa ff 16 be c3 02 19 be
       -0.0484148 0.03399256 -0.14746085 -0.1494246
000270 0d 88 ce bd a0 ae 90 bd 2f e9 f2 3d f2 f5 b2 bc
       -0.100845434 -0.07064557 0.118608825 -0.021845791
000280 02 59 95 bc 3e 76 47 3d 1d de 2d bb e4 0b d1 bd
       -0.018230919 0.04869675 -0.0026530095 -0.10207346
000290 9c 5a b7 3c 99 bf 34 be 2a 96 e2 3d 14 de ce bd
       0.022382073 -0.17651214 0.11063798 -0.10100952
0002a0 1f b7 b7 3d 0a ae ad 3d fc 97 1e be fa 22 dc 3d
       0.089704745 0.08480461 -0.15487665 0.10748859
0002b0 ca 5c 3a 3c 53 31 1a 3e bf 9f 7a bd 2a b4 93 bd
       0.011374662 0.15057878 -0.061187502 -0.07212098
0002c0 fc fd f2 bd 0d 18 e2 bc a2 1b 43 be 85 9b 23 be
       -0.1186485 -0.027599359 -0.1905351 -0.15977295
0002d0 79 39 aa 3d 32 e9 3c be b3 d6 c2 bd a2 9d d5 bb
       0.08311743 -0.18448332 -0.09513607 -0.0065190354
0002e0 a0 78 16 bd 45 fd 99 bd 31 c0 28 be e9 25 51 be
       -0.03673613 -0.075190105 -0.16479565 -0.20424618
0002f0 2e b5 7a 3d 15 16 34 be e5 c3 06 3e 9e 31 8e 3d
       0.061207943 -0.17586549 0.13160665 0.069430575
000300 d4 52 91 bd d9 30 f0 bd 5c e7 a4 3d ca 68 37 3e
       -0.07095876 -0.11728067 0.08051941 0.17911068
000310 66 17 18 be eb e3 1c 3e 4f ad 80 bb 54 b7 ab bd
       -0.14852676 0.15321319 -0.00392691 -0.083845764
000320 1f ee cd 3d cb f0 c0 3c a5 bd 9d bd 36 e2 97 bd
       0.100551836 0.023552319 -0.077021874 -0.07416193
000330 bf 04 ef 3d 8a 23 3d be a0 7a cc 3d e7 4b ab bc
       0.11670827 -0.18470588 0.09984326 -0.020910216
000340 d1 06 ee 3d aa f6 d6 bd 22 13 8a bc 86 25 41 bd
       0.11622394 -0.10496266 -0.016854826 -0.047154926
000350 d8 a3 6f 3d 83 e2 3b 3e 16 85 eb bd 18 3b de 3d
       0.058505863 0.18348126 -0.114999935 0.10851115
000360 f2 c9 31 3e 04 4e 34 3e d1 ed 37 3e 1e 42 c4 3d
       0.17362192 0.17607886 0.17961814 0.09582923
000370 45 af 7e bc 01 93 13 3e 57 23 48 3c 87 a6 a7 bc
       -0.015544717 0.14411546 0.012215457 -0.020465149
000380 b9 8c cc bd bb a5 62 3d 00 87 f0 3c b8 22 de bb
       -0.09987778 0.055333834 0.029361248 -0.006779041
000390 10 28 3e 3e cf fa 4e 3e 14 51 92 3d e3 fe 62 bd
       0.1856997 0.20212863 0.07144371 -0.05541886
0003a0 c0 5d ab 3d 28 77 93 3d cc 78 03 3e e3 e3 16 3e
       0.08367491 0.072004616 0.12839049 0.1473537
0003b0 48 a5 a8 3d 38 4e 3d 3d c1 e8 1e 3c 0e db f6 3d
       0.0823465 0.046217173 0.009699048 0.120535
0003c0 9b eb d4 bd c7 0d 3e 3e 8c f6 69 bd db 7e fd 3d
       -0.10396501 0.18559943 -0.05711989 0.123777114
0003d0 8f d2 c8 3c 62 51 44 be 29 f2 df 3c 41 dd 4c 3c
       0.024514465 -0.1917167 0.02733715 0.012503923
0003e0 c0 35 1d be ac 57 bd 3d e4 45 96 bd 33 92 1f be
       -0.15352535 0.09245238 -0.07337549 -0.15583114
0003f0 25 2e 6d 3e 5e c7 5b bc d0 46 8e 3d 49 ff 4f bd
       0.23162134 -0.013414232 0.069471 -0.05078057

model_9/conv2d_16/Conv2D_bias f4 [16]
000000 3c 1d 85 3c 33 da 07 bc 66 9e 0e bc e0 68 62 bb
       0.016249292 -0.008291769 -0.008704757 -0.0034547374
000010 34 3d 5a 3c b6 53 53 bc 93 91 85 bc 90 be 0e 3c
       0.013320256 -0.012898376 -0.016304767 0.008712426
000020 16 74 ae 3c 8d de 62 3d f0 3b f9 3c 7b c9 ae bc
       0.021295588 0.055388022 0.030424088 -0.021336308
000030 7e a6 9f bb c4 f8 30 3b 10 8c 4c 3b ae 8a ab 3c
       -0.0048721423 0.0027003745 0.0031211413 0.020940151

model_9/conv2d_17/Conv2D/ReadVariableOp i1 [32, 3, 3, 16] scale=0.0017702105 zero_point=0
000000 ad 05 34 e1 dd 02 08 20 db 1d 2f 2c f8 34 2d a8
       -0.14692746 0.008851052 0.09205094 -0.054876525 -0.061957367 0.003540421 0.014161684 0.056646734 -0.065497786 0.051336102 0.08319989 0.07788926 -0.014161684 0.09205094 0.07965947 -0.15577853
000010 c8 35 39 26 f2 ff c0 10 e0 9c 59 ef 4e 5d e0 f6
       -0.099131785 0.09382115 0.100902 0.067268 -0.024782946 -0.0017702105 -0.11329347 0.028323367 -0.056646734 -0.17702104 0.15754873 -0.030093577 0.13807641 0.16462958 -0.056646734 -0.017702105
000020 40 06 c9 21 41 ec c1 28 43 ba 37 23 e7 40 13 f9
       0.11329347 0.010621263 -0.09736157 0.058416944 0.11506368 -0.03540421 -0.111523256 0.07080842 0.1186041 -0.12391473 0.09736157 0.061957367 -0.04425526 0.11329347 0.033634 -0.012391473
000030 c5 fc 48 16 be 0d cd 13 2d fe 6c 16 02 f8 49 21
       -0.10444242 -0.007080842 0.12745515 0.03894463 -0.11683389 0.023012735 -0.090280734 0.033634 0.07965947 -0.003540421 0.19118273 0.03894463 0.003540421 -0.014161684 0.12922536 0.058416944
000040 d1 fd f0 43 e9 09 fe 19 41 c1 0d 1a 1e 0e f0 d9
       -0.08319989 -0.0053106314 -0.028323367 0.1186041 -0.04071484 0.015931893 -0.003540421 0.04425526 0.11506368 -0.111523256 0.023012735 0.04602547 0.053106315 0.024782946 -0.028323367 -0.069038205
000050 00 bd cb d2 bf 27 be f7 e7 d4 13 15 ef f6 ea 1c
       0.0 -0.1186041 -0.09382115 -0.08142968 -0.11506368 0.069038205 -0.11683389 -0.015931893 -0.04425526 -0.07788926 0.033634 0.03717442 -0.030093577 -0.017702105 -0.03894463 0.049565893
000060 fd df 2e 3e e2 11 e3 41 02 ef 6b b0 09 e1 d8 1d
       -0.0053106314 -0.058416944 0.08142968 0.10975305 -0.053106315 0.030093577 -0.051336102 0.11506368 0.003540421 -0.030093577 0.18941252 -0.14161684 0.015931893 -0.054876525 -0.07080842 0.051336102
000070 c1 06 27 d9 3c 30 26 fa f8 d0 3d e2 08 4b 27 ea
       -0.111523256 0.010621263 0.069038205 -0.069038205 0.10621263 0.0849701 0.067268 -0.010621263 -0.014161684 -0.0849701 0.10798284 -0.053106315 0.014161684 0.13276578 0.069038205 -0.03894463
000080 17 bb b9 1e ca 28 26 fa 46 cc 22 d4 cc 40 06 2d
       0.04071484 -0.12214452 -0.12568495 0.053106315 -0.09559137 0.07080842 0.067268 -0.010621263 0.12391473 -0.09205094 0.060187154 -0.07788926 -0.09205094 0.11329347 0.010621263 0.07965947
000090 e6 11 13 4a 3d c7 c3 ea ff 3e 30 f1 de e8 38 18
       -0.04602547 0.030093577 0.033634 0.13099557 0.10798284 -0.100902 -0.10798284 -0.03894463 -0.0017702105 0.10975305 0.0849701 -0.026553158 -0.060187154 -0.04248505 0.099131785 0.04248505
0000a0 25 30 02 d0 d3 1e 2a bc 2c dc 0a ed 20 d8 3c 24
       0.065497786 0.0849701 0.003540421 -0.0849701 -0.07965947 0.053106315 0.07434884 -0.12037431 0.07788926 -0.06372757 0.017702105 -0.033634 0.056646734 -0.07080842 0.10621263 0.06372757
0000b0 16 33 04 04 e5 c5 21 e9 f6 ca c7 1b 19 27 05 29
       0.03894463 0.090280734 0.007080842 0.007080842 -0.047795683 -0.10444242 0.058416944 -0.04071484 -0.017702105 -0.09559137 -0.100902 0.047795683 0.04425526 0.069038205 0.008851052 0.07257863
0000c0 e1 f2 35 2d 13 43 28 e4 1f d3 10 04 ca 15 0f 06
       -0.054876525 -0.024782946 0.09382115 0.07965947 0.033634 0.1186041 0.07080842 -0.049565893 0.054876525 -0.07965947 0.028323367 0.007080842 -0.09559137 0.03717442 0.026553158 0.010621263
0000d0 db ea 34 fd 29 e5 0e cc e4 b7 df d1 df ef 27 fa
       -0.065497786 -0.03894463 0.09205094 -0.0053106314 0.07257863 -0.047795683 0.024782946 -0.09205094 -0.049565893 -0.12922536 -0.058416944 -0.08319989 -0.058416944 -0.030093577 0.069038205 -0.010621263
0000e0 32 35 08 e4 09 e5 d3 ff 26 e1 2d 18 f4 4c 18 17
       0.08851052 0.09382115 0.014161684 -0.049565893 0.015931893 -0.047795683 -0.07965947 -0.0017702105 0.067268 -0.054876525 0.07965947 0.04248505 -0.021242525 0.134536 0.04248505 0.04071484
0000f0 f8 b3 19 04 16 e9 0d 16 1e 1d f2 b2 d2 0f cc 3a
       -0.014161684 -0.13630621 0.04425526 0.007080842 0.03894463 -0.04071484 0.023012735 0.03894463 0.053106315 0.051336102 -0.024782946 -0.13807641 -0.08142968 0.026553158 -0.09205094 0.102672204

model_9/conv2d_17/Conv2D_bias f4 [32]
000000 d5 1a 57 3c 81 b4 8b 3a 0e e4 85 3a 24 cf ad bb
       0.013128956 0.0010658653 0.001021506 -0.005304234
000010 c5 04 a7 3c 60 f0 38 3c 07 e1 ce 3b cb 68 71 3c
       0.020388016 0.011287779 0.0063134464 0.014734457
000020 b6 38 9b bc a3 5a 8f 3c 31 8b d5 3b 02 14 ce bb
       -0.01894794 0.017499274 0.006516837 -0.006289006
000030 9d f2 72 3c 19 99 a5 3c db 58 57 3c fd 21 2b 3c
       0.014828351 0.020214604 0.013143743 0.010445115
000040 94 76 90 bc 34 24 10 bc a0 c0 f4 3a 81 ee f1 3c
       -0.017634667 -0.008797694 0.0018673129 0.029532673
000050 9b 01 a1 3c 5c 75 d0 bb 25 48 a7 3b d4 13 4a bc
       0.019654086 -0.0063616466 0.005105036 -0.012333829
000060 0e 84 a4 3a 9e 89 74 bb e0 a2 73 3c 78 f8 f3 bb
       0.0012551562 -0.0037313472 0.014870375 -0.0074453913
000070 23 da 9d bc 85 7d 8b 3c 98 b4 3c 3a 25 a3 4c bb
       -0.019269055 0.017027626 0.00071985414 -0.0031225171

model_9/dense_18/MatMul/ReadVariableOp/transpose i1 [32, 256] scale=0.0020945843 zero_point=0
000000 c9 11 c9 ea 3b ea 38 bc 1e 4a 3a 0b b1 14 01 e9
       -0.11520214 0.035607934 -0.11520214 -0.046080854 0.12358047 -0.046080854 0.11729672 -0.14243174 0.062837526 0.15499924 0.12148589 0.023040427 -0.16547216 0.041891687 0.0020945843 -0.04817544
000010 1b fc ee ea 48 0d c5 1a 11 d4 3b b5 29 14 08 e7
       0.056553777 -0.008378337 -0.037702516 -0.046080854 0.15081006 0.027229596 -0.12358047 0.05445919 0.035607934 -0.09216171 0.12358047 -0.15709382 0.085877955 0.041891687 0.016756674 -0.052364606
000020 ab c0 10 38 21 13 d7 a8 d4 4f 30 ea 0a d9 07 14
       -0.17803967 -0.1340534 0.03351335 0.11729672 0.06912128 0.0397971 -0.085877955 -0.18432342 -0.09216171 0.16547216 0.10054004 -0.046080854 0.020945843 -0.081688784 0.01466209 0.041891687
000030 21 db d3 af c1 47 f7 c0 3d d7 36 00 0c ee 15 3d
       0.06912128 -0.07749962 -0.09425629 -0.16966133 -0.13195881 0.14871548 -0.018851258 -0.1340534 0.12776963 -0.085877955 0.113107555 0.0 0.02513501 -0.037702516 0.04398627 0.12776963
000040 18 07 e2 e5 4d 30 ef dc 15 fe f8 1d ca ed de f8
       0.05027002 0.01466209 -0.062837526 -0.056553777 0.16128299 0.10054004 -0.035607934 -0.07540503 0.04398627 -0.0041891686 -0.016756674 0.060742944 -0.113107555 -0.0397971 -0.07121587 -0.016756674
000050 e7 3e 35 0c 13 da 32 c2 fa f5 0e 3c 44 d4 f4 ef
       -0.052364606 0.12986423 0.111012965 0.02513501 0.0397971 -0.0795942 0.10472921 -0.12986423 -0.012567505 -0.023040427 0.02932418 0.12567505 0.14243174 -0.09216171 -0.02513501 -0.035607934
000060 a5 3b 2b 12 5b e5 ec 20 d0 04 f4 2d ea e6 10 d5
       -0.19060718 0.12358047 0.090067126 0.037702516 0.19060718 -0.056553777 -0.041891687 0.0670267 -0.10054004 0.008378337 -0.02513501 0.09425629 -0.046080854 -0.05445919 0.03351335 -0.090067126
000070 bd fe 08 b3 e6 4b 24 09 43 ba 23 1d fe 15 11 c0
       -0.14033715 -0.0041891686 0.016756674 -0.16128299 -0.05445919 0.15709382 0.07540503 0.018851258 0.14033715 -0.1466209 0.07331045 0.060742944 -0.0041891686 0.04398627 0.035607934 -0.1340534
000080 c8 3e 3f ed 43 fb cc 07 05 d5 c6 2a c4 23 c9 3f
       -0.11729672 0.12986423 0.13195881 -0.0397971 0.14033715 -0.010472922 -0.10891838 0.01466209 0.010472922 -0.090067126 -0.12148589 0.08797254 -0.12567505 0.07331045 -0.11520214 0.13195881
000090 09 33 d9 17 ef c1 19 cb 48 2b c5 26 26 ec fc 3b
       0.018851258 0.1068238 -0.081688784 0.04817544 -0.035607934 -0.13195881 0.052364606 -0.111012965 0.15081006 0.090067126 -0.12358047 0.0795942 0.0795942 -0.041891687 -0.008378337 0.12358047
0000a0 1a cf d6 1f 4a d2 2d a0 ea 07 fd f7 dc ed d0 1d
       0.05445919 -0.10263463 -0.08797254 0.064932115 0.15499924 -0.09635088 0.09425629 -0.20108008 -0.046080854 0.01466209 -0.0062837526 -0.018851258 -0.07540503 -0.0397971 -0.10054004 0.060742944
0000b0 f0 28 f7 d7 f1 ee 29 ef 31 d4 e7 25 f5 f8 2b 3d
       -0.03351335 0.08378337 -0.018851258 -0.085877955 -0.031418763 -0.037702516 0.085877955 -0.035607934 0.10263463 -0.09216171 -0.052364606 0.07749962 -0.023040427 -0.016756674 0.090067126 0.12776963
0000c0 15 2c c1 be e8 e2 e3 18 3b e9 e4 d0 f9 1b d8 2d
       0.04398627 0.09216171 -0.13195881 -0.13824256 -0.05027002 -0.062837526 -0.060742944 0.05027002 0.12358047 -0.04817544 -0.05864836 -0.10054004 -0.01466209 0.056553777 -0.08378337 0.09425629
0000d0 1b eb 23 01 e1 32 19 e0 e8 e8 d6 3d da 37 25 e7
       0.056553777 -0.04398627 0.07331045 0.0020945843 -0.064932115 0.10472921 0.052364606 -0.0670267 -0.05027002 -0.05027002 -0.08797254 0.12776963 -0.0795942 0.11520214 0.07749962 -0.052364606
0000e0 d3 f5 14 02 16 02 44 af 04 f9 cc 23 e7 0f 42 1e
       -0.09425629 -0.023040427 0.041891687 0.0041891686 0.046080854 0.0041891686 0.14243174 -0.16966133 0.008378337 -0.01466209 -0.10891838 0.07331045 -0.052364606 0.031418763 0.13824256 0.062837526
0000f0 fc 46 0b 1a d4 20 09 11 15 3a f3 25 e5 18 ce 3d
       -0.008378337 0.1466209 0.023040427 0.05445919 -0.09216171 0.0670267 0.018851258 0.035607934 0.04398627 0.12148589 -0.027229596 0.07749962 -0.056553777 0.05027002 -0.10472921 0.12776963

model_9/dense_18/MatMul_bias f4 [32]
000000 bc 7e ce 3b a3 64 44 3c cd 11 15 3c f7 78 45 bc
       0.006301729 0.011986884 0.009098482 -0.012052766
000010 25 fe 11 3c 72 c8 a7 3b eb 34 ff 3a 1e e3 ef bb
       0.00891069 0.0051203305 0.0019470727 -0.0073207757
000020 17 92 69 3c 06 c8 b8 bb 68 b7 25 3c 9a db 12 bc
       0.014256022 -0.005639079 0.010114528 -0.00896349
000030 37 8f 80 bc 48 cf 0f 3c 6a 25 5a 3c b3 dd 20 3c
       -0.01569329 0.008777447 0.013314584 0.009818482
000040 31 9d 29 bb 18 10 17 3c b4 c2 71 3b 17 02 66 3a
       -0.0025881047 0.009220146 0.0036889734 0.0008774115
000050 9f ff da 3b c9 57 1c bc c7 08 2d 3c d4 aa 4f 3c
       0.0066833044 -0.009542414 0.010561175 0.012675006
000060 6d db 1c bb 41 13 f8 3b dc d8 8e 3a de 07 6d 3b
       -0.00239345 0.0075706546 0.0010898369 0.003616802
000070 59 12 f3 3b 58 c3 4e 3c 7d 78 c0 3b 0e 84 7a bb
       0.0074179587 0.012619816 0.0058737383 -0.0038225683

model_9/dense_19/MatMul/ReadVariableOp/transpose f4 [16, 32]
000000 58 22 44 be 96 d6 78 3d ae c5 b0 bc 02 de 9c 3e
       -0.19153726 0.06075152 -0.021578636 0.3063813
000010 0b e1 60 be f7 e2 50 3e a8 6d 73 3e ca b5 1f be
       -0.21960847 0.2039908 0.237723 -0.15596691
000020 e1 65 da bd 51 35 bb be 97 ef 88 3e e0 ad c7 be
       -0.10663963 -0.36564115 0.26745293 -0.38999844
000030 ea 36 1c be 93 84 d1 3e 99 b2 46 3e b0 a0 bf be
       -0.15255323 0.4092146 0.19404067 -0.37427282
000040 11 4e a4 3e 82 ab b5 3c 69 92 2b 3e 07 1b a1 3e
       0.3209081 0.022176508 0.1675507 0.31465933
000050 eb f5 d8 bd b3 8f aa be 0d 73 8b bc 4d a6 fb 3d
       -0.1059378 -0.3331276 -0.017022634 0.12287579
000060 7f c0 ee 3d ce 8f 15 3e 46 1d 3b 3e cf ed cd bc
       0.116578095 0.14605638 0.18272886 -0.02513781
000070 bd b4 0f 3e 4b 73 27 3d bc f9 ab bd 9d e6 ac 3d
       0.1403379 0.040881436 -0.083972424 0.084424235
000080 6a 9f 07 3e d5 d4 32 bd 21 85 68 3e ef 96 9d 3d
       0.13244405 -0.043660004 0.22707035 0.07694804
000090 19 a4 9b be 1e f7 15 be b4 35 98 3e 77 d1 e9 3b
       -0.30398634 -0.14645049 0.29728472 0.007135566
0000a0 89 5d 6d 3e f5 5f ca 3d 7b 15 43 3e 26 b7 81 be
       0.23180212 0.098815836 0.19051163 -0.25335044
0000b0 df 6f 19 bd df aa 26 bd 53 ae 9c 3e 25 bb 8b 3c
       -0.037460204 -0.0406903 0.3060175 0.01705701
0000c0 68 b6 40 be 2c 7b 9e 3e 2e ae 81 be 4e af 79 3e
       -0.18819582 0.30953348 -0.253282 0.2438328
0000d0 34 61 d4 3d 95 5b a9 3c 0c e0 1c be 07 3d b7 3e
       0.103701025 0.020673553 -0.15319842 0.35788748
0000e0 72 c5 aa 3e a9 8b af be 2d f9 8e 3e b7 b3 9f 3e
       0.33353764 -0.3428624 0.2792448 0.311918
0000f0 af 91 5d be f8 98 21 bd 20 34 85 be c5 97 ed 3c
       -0.21637605 -0.039452523 -0.2601633 0.029003033
000100 c4 2e b6 be 24 58 fc bd 83 20 b6 be 28 eb 4d 3b
       -0.35582554 -0.12321499 -0.3557168 0.0031420682
000110 ee a9 72 bd 7e c9 9c 3e 91 dd c1 bd c2 3c 2b 3e
       -0.05924409 0.30622476 -0.094660886 0.16722396
000120 f1 c6 28 3e bd 83 e2 bd 25 4a c7 be 28 57 7f be
       0.1648214 -0.11060283 -0.38923755 -0.24935591
000130 5b 90 02 bc 7a 68 77 3e 3d 76 19 be 6c de 38 be
       -0.007968987 0.24160948 -0.1498651 -0.18053597
000140 86 58 88 3e d2 7d 9c be af 26 77 be c9 c6 e3 3d
       0.26630038 -0.30564743 -0.2413585 0.111219
000150 b1 a2 48 bd 6b 0d a6 3e 3a 6e a1 bd 0d 89 af 3e
       -0.04898328 0.32432112 -0.07882352 0.3428425
000160 fa 36 9b 3d ff b8 0c be c8 5d 16 3e 66 c6 46 3d
       0.07578845 -0.13742445 0.14684212 0.04852905
000170 90 d8 85 be 6c 48 9a 3e 94 22 a0 3e d9 83 29 be
       -0.26141787 0.30133379 0.3127638 -0.16554202
000180 29 08 a9 3d ac ce 5a be 37 64 98 be 8c a2 5d be
       0.082535096 -0.21367902 -0.29763958 -0.21644038
000190 9f 71 a0 3e 97 71 63 3e af 74 a7 be ad 77 96 bd
       0.31336686 0.222113 -0.3270621 -0.07347045
0001a0 7c 70 b4 be 3c bb a1 be 7e 46 08 be 00 fb c0 be
       -0.3524207 -0.3158816 -0.1330814 -0.37691498
0001b0 33 bf 1e be 56 34 b0 be ee 4a 21 3d 73 4d f7 3d
       -0.15502624 -0.3441493 0.0393781 0.12075319
0001c0 f6 25 c1 3e 65 8c 8d be 17 dc 37 3e 85 6c 07 be
       0.37724274 -0.27646175 0.17955051 -0.1322499
0001d0 98 47 f4 bd 5a 83 b5 3d 30 02 3d bd 3f 85 5d be
       -0.11927718 0.08862944 -0.046144664 -0.2163286
0001e0 1d 23 26 3e 12 4d bc be 30 7d a2 be 40 03 81 3e
       0.16224332 -0.3677755 -0.31736135 0.25197792
0001f0 53 b1 8f be 37 85 ca 3d 6f 1d 0d 3e e9 79 82 3e
       -0.28064975 0.0988869 0.1378076 0.25483635
000200 50 d0 1e be c7 d7 92 3e 85 05 13 bd 1b ea b3 3d
       -0.15509152 0.2868025 -0.035893936 0.087848864
000210 68 80 24 3e 37 e2 26 be 2b 23 51 be f9 bb 87 3e
       0.16064608 -0.16297232 -0.20423572 0.265106
000220 6f 9b ab be e7 ab 9a 3e cc 28 2d 3d d2 b6 57 be
       -0.33517024 0.30209276 0.042275235 -0.21065834
000230 42 20 52 3e 47 c6 10 3e 68 b0 20 3e 72 0e 05 3e
       0.20520118 0.14138137 0.15692294 0.12993792
000240 aa 7e 88 3d 24 00 76 3c e4 48 26 3e 64 d2 45 3d
       0.06664784 0.015014682 0.16238743 0.048296347
000250 80 5c 51 bc c0 05 09 3d f6 0f d0 3e cd 4c c5 be
       -0.012778401 0.03345275 0.40637177 -0.38535157
000260 5a 26 7e 3d c6 0f 3e 3c 90 28 5f be 61 f2 55 3e
       0.062048294 0.01160044 -0.21792817 0.20893241
000270 da f2 5a be 5c 50 56 be f6 d4 9b be 8e 72 d1 3e
       -0.21381703 -0.20929092 -0.30435914 0.4090771
000280 9a dc 15 be 26 97 0e be d1 5f 77 be 57 5c a7 3e
       -0.14634934 -0.13924846 -0.24157645 0.32687637
000290 04 c0 bc 3c aa b1 11 be e5 a0 49 3e ab d8 b7 be
       0.023040779 -0.1422793 0.19690283 -0.35907492
0002a0 de be 08 bc 83 08 5d be d1 48 c5 be 53 32 38 bd
       -0.0083462875 -0.21585278 -0.38532117 -0.044969868
0002b0 ab 7f 9d 3e b2 2f c8 be c7 18 4e 3c 02 04 c9 3d
       0.30761465 -0.3909889 0.01257915 0.098152176
0002c0 2d 59 b1 3d c7 8f 0a 3e 2c 45 b3 3e 94 7e 30 be
       0.08659587 0.13531409 0.3501371 -0.17235786
0002d0 6c c7 c3 be 25 66 b9 3e 16 ed a4 3e 9a 4d b4 3e
       -0.38238084 0.36210743 0.32212132 0.35215455
0002e0 8f 27 94 bd 88 5b 11 be 29 5c 71 3e 29 2a 74 3e
       -0.07234108 -0.14195073 0.23570313 0.23844208
0002f0 83 70 96 be 0b 39 ae 3b 9c dc de 3c 96 ba b7 3e
       -0.29382715 0.0053168586 0.027204804 0.3588454
000300 1a 2c 30 be f2 c5 ba 3e e4 96 ce 3e e3 2a 24 bd
       -0.17204323 0.36479145 0.40349495 -0.040079962
000310 df 7c 64 3e f4 b7 a9 be 09 fd 76 be 9c dd 73 be
       0.2231326 -0.33148158 -0.24119963 -0.23815006
000320 4b e3 e6 bd 6b 5d cc be d3 f9 7a 3e 33 03 85 be
       -0.112738214 -0.39915022 0.24509363 -0.25979003
000330 39 9b ff bd a4 88 a1 bc 73 21 dd 3d 48 49 36 3e
       -0.12480778 -0.019718476 0.107973956 0.17801392
000340 ac 92 cf bd a8 ff bf 3e 61 d8 28 be 00 2f ba bc
       -0.10135397 0.37499738 -0.16488792 -0.02272749
000350 9f 40 30 be e2 4c 80 be d9 15 d0 3e c2 d8 99 be
       -0.17212151 -0.25058657 0.40641668 -0.30048186
000360 8b 9c 93 be 79 00 ca 3e 05 63 82 3d fc 2a 08 3d
       -0.2883037 0.39453486 0.06366543 0.033244118
000370 cd 8b 84 3e 6a e8 31 be 8c ae 6c 3d d9 92 f3 bd
       0.2588791 -0.17373815 0.05778365 -0.11893243
000380 f6 5f ce 3e d5 04 8f bc 5e d1 29 3e 22 22 63 3d
       0.40307587 -0.017458359 0.16583773 0.055452473
000390 5a fa 27 3e 6f fa b1 3e d2 66 7a be 9c 7a ac 3d
       0.16404095 0.34761378 -0.24453285 0.084218234
0003a0 30 29 b3 be 3c e9 af 3e 23 46 b7 be 24 52 5a bc
       -0.3499236 0.3435763 -0.35795698 -0.013325248
0003b0 1a 3e 95 3e fb d6 7f be 68 f0 61 3e eb 52 27 bd
       0.29148942 -0.24984352 0.22064364 -0.04085056
0003c0 60 df 99 3e 84 52 1a 3d 92 bb a7 be aa 55 b0 3d
       0.30053234 0.03767635 -0.32760292 0.08610089
0003d0 64 1a 8b bc 15 f1 a3 3e a5 63 c6 be 48 4f 8c 3e
       -0.016980357 0.32019868 -0.38747898 0.27404237
0003e0 54 b2 11 3d fe a2 24 bd bb 7d 99 be 81 8f b8 3e
       0.035570458 -0.040194504 -0.29978737 0.36046985
0003f0 72 92 b8 be bd d8 b2 3d 60 b5 cf bd 1d bb 96 be
       -0.3604923 0.08732746 -0.101420164 -0.2943963

model_9/dense_19/MatMul_bias f4 [16]
000000 f8 5d a5 3b 50 8a 7b bb 63 d7 6d 3a d9 e1 a0 3b
       0.0050466023 -0.0038382001 0.00090729276 0.0049097356
000010 7b 94 92 ba f1 68 cc 39 48 76 fa 3c 24 9e 08 3b
       -0.0011183167 0.000389881 0.030573979 0.0020846212
000020 fe 2d 04 bc be 52 90 3b 1a 10 1c bd 22 4a 60 bc
       -0.008067606 0.004404395 -0.038101293 -0.01368955
000030 35 22 2e 3c 8c da 30 3b 72 75 5f 3b 71 b4 2a 3c
       0.010628273 0.0026985733 0.0034097102 0.010418997

model_9/dense_20/MatMul/ReadVariableOp/transpose f4 [5, 16]
000000 7f 91 ba 3c 11 74 5b be 6f 13 df 3d 20 7e c8 3e
       0.022774456 -0.21430995 0.108923785 0.39158726
000010 96 a4 0c 3e 21 1c 99 3e f3 1a 6b be 69 15 98 bc
       0.1373466 0.29904273 -0.22959499 -0.018564897
000020 9f c4 b5 be dd b2 00 3f f4 3d db 3e 2f 1e c3 be
       -0.35501572 0.50272924 0.42820704 -0.38108966
000030 c9 4b 30 be 21 5b 01 bf e5 b4 f9 be df 21 81 3e
       -0.1721641 -0.50529677 -0.48770824 0.25221154
000040 11 4c bc be 5a c1 04 3f 8f 27 fa bd 84 74 6f 3e
       -0.36776784 0.5185753 -0.122145765 0.23384291
000050 87 45 6f be 26 d7 ed bc 3a a5 f7 be 8c 58 f4 3e
       -0.23366366 -0.029033255 -0.48368245 0.47723806
000060 5a f5 b9 3e b5 bb fc be 00 58 d1 3e 39 e2 74 3d
       0.3632 -0.4936196 0.4088745 0.059786055
000070 7e 65 cf 3e 7f ed 0e 3f 0d d7 8d 3e b8 43 a4 3e
       0.4050712 0.5583114 0.27703133 0.32082915
000080 e4 99 a4 3e bc a8 9c 3d 6b 68 39 be 0e cb e7 be
       0.3214866 0.07649371 -0.18106239 -0.45272106
000090 ea 40 b3 3e 57 f5 41 bd 2b de 12 3f e6 75 0e bf
       0.35010463 -0.047353115 0.5737025 -0.5564865
0000a0 8d 81 11 bf 15 cc 09 be 72 4a 68 3e 70 f9 dc be
       -0.56838304 -0.13456757 0.22684649 -0.43159056
0000b0 d5 1a a4 be 7a b5 0a be 2d 05 c6 3d c0 5b b5 be
       -0.3205172 -0.1354579 0.09668956 -0.35421562
0000c0 a7 b9 69 be 67 6e ac be 4c dc 39 be f9 a6 f3 be
       -0.22824727 -0.3367798 -0.18150443 -0.47588328
0000d0 07 44 ff be 03 69 50 3e 9a c9 85 3e 7c 34 0c bf
       -0.49856588 0.20352559 0.26130372 -0.54767585
0000e0 7d eb 0b bf 26 17 b0 3d 12 0f a8 3e ee 89 90 bd
       -0.546562 0.08598165 0.32823998 -0.07057558
0000f0 75 6c c8 3e a5 35 e2 3e 13 50 8a be 4f b5 ab 3e
       0.39145246 0.44181553 -0.27014217 0.33536765
000100 58 ed 30 3e dd 33 74 be c6 9b ca bd ac 82 c4 3e
       0.1727804 -0.2384791 -0.09892993 0.38380945
000110 4b d3 d8 3e 77 92 1a 3e d6 4a f1 3e da c8 00 bd
       0.42348704 0.15094934 0.47127408 -0.031441547
000120 29 3e 90 be c4 00 94 be 63 5c 16 3f 31 20 74 3e
       -0.28172424 -0.28906834 0.5873472 0.23840405
000130 6c 42 9a be f5 54 40 3e 1b fa a6 3e 6f 3e 16 bf
       -0.301288 0.18782409 0.3261269 -0.58689016

model_9/dense_20/MatMul_bias f4 [5]
000000 e7 11 4a bb 68 d7 3a bc e7 03 ae 3c 0d 00 89 3c
       -0.0030833425 -0.011403896 0.021242095 0.016723657
000010 05 a9 9b bc
       -0.019001493
