assets/quantized_models/characters.tflite (tflite, 45792 bytes, 12 tensors)

model_6/conv2d_21/Conv2D/ReadVariableOp f4 [16, 3, 3, 3]
000000 5b 3b 4f be 4a 73 c9 3d c6 d8 26 bc 56 cf e7 bd
       -0.20237486 0.09836443 -0.010183519 -0.11318843
000010 ec b3 bf 3d be a2 d6 3d 0d 90 54 be 38 b7 57 be
       0.09360489 0.10480259 -0.20758076 -0.21065986
000020 8c 77 5a be 4b 41 bd bc 78 87 29 3e 9d ff f7 bd
       -0.21334666 -0.023102423 0.16555583 -0.12109301
000030 59 98 34 be f0 2a 79 bd bd 0a 32 be b8 fc 54 be
       -0.17636241 -0.060831964 -0.17386909 -0.2079953
000040 c3 40 45 be 54 8e 2e be c2 80 39 3e 22 1d 95 bd
       -0.19262986 -0.17046481 0.18115523 -0.07280947
000050 e6 b4 1e 3e a2 e8 a3 bd 25 91 81 3c d3 c4 b4 bd
       0.15498695 -0.080033556 0.01581628 -0.08826604
000060 79 76 c4 bd 19 91 7a bd 1a 9a 64 be 1d b1 82 3e
       -0.09592909 -0.061173532 -0.2232441 0.25525752
000070 5f 34 5e 3e 90 9f 30 3e a9 a1 b7 3c 64 fa 8d 3e
       0.21699665 0.17248368 0.022415953 0.27730095
000080 9e 9a 7a 3e 59 e1 d5 bc 83 0f 99 3c ac 26 0c bd
       0.24473044 -0.02610843 0.018684154 -0.034216568
000090 e6 a1 24 3e 09 2a a9 3d 29 65 0d bd b5 22 46 3e
       0.16077384 0.08259971 -0.034520302 0.19349177
0000a0 23 99 57 bc 0d 3f 32 3e 5a 74 67 3e fc 92 50 3e
       -0.013159069 0.17406864 0.22602978 0.2036857
0000b0 02 1e 85 3e c5 a2 6a bc f5 9c 82 bd fa 56 b2 3c
       0.25999457 -0.014321034 -0.063775934 0.02176999
0000c0 a9 53 61 3d f8 52 88 bd f8 b9 2e 3e c7 06 2e 3e
       0.055011425 -0.0665645 0.17063129 0.16994773
0000d0 8e 41 5d 3d 06 eb a4 3c f1 70 20 3d e1 0b ca 3d
       0.054017596 0.0201316 0.03917021 0.09865547
0000e0 29 73 cf 3d f9 ee 9e 3d d9 0e b0 3e 10 ba 60 3e
       0.10129387 0.07760424 0.34386328 0.21945977
0000f0 e1 6e 07 3e 4b 7c a7 3e 97 06 06 3e b1 c8 a7 3e
       0.1322589 0.32712016 0.13088451 0.32770303
000100 98 0a 90 3d ad c5 69 3e 0b ac 48 3e 59 03 a2 3c
       0.070332706 0.22829314 0.19596879 0.019776987
000110 b3 7a b0 3e fa 60 c5 3e 1b 5e 34 3e ce b6 b2 3e
       0.34468612 0.3855055 0.17614023 0.34905094
000120 77 7a 92 3e 8b 07 bf 3d 9d 1b 0a 3e a3 c7 cc 3e
       0.28609058 0.093276106 0.13487096 0.3999606
000130 50 3f b8 3d dc e1 96 3e 1f bd 8f 3d f6 1b 53 3e
       0.08996451 0.29469192 0.07018494 0.20616135
000140 85 b5 b6 3e cb 1d 3f 3e 7b a8 86 3e 79 9d a8 3e
       0.35685363 0.18663709 0.26300415 0.32932642
000150 49 50 91 3e e0 fe c8 bb 5d ff 72 3e 5f 4d 98 3e
       0.28381565 -0.006133899 0.23730226 0.2974653
000160 e7 9a fa 3d b8 bb 0f 3d 13 43 1b 3e 04 ed 04 3e
       0.122365765 0.035091132 0.15162306 0.1298104
000170 2d f7 ad bd 99 97 b6 3d f0 10 32 3e 6e 45 6e 3d
       -0.08494411 0.08915634 0.17389274 0.058171682
000180 5a 5d 0a be 7b 47 e0 bd 51 7d cc 3d 8d e0 a6 be
       -0.13512173 -0.10951134 0.0998484 -0.32593194
000190 3f ff 93 be 7c 53 23 be 9b 83 b3 be 38 fb 1d be
       -0.28905675 -0.15949816 -0.35061345 -0.15427864
0001a0 a4 db 5f be 4d 14 fe bd 8d 02 80 be 7a d3 9d be
       -0.2186113 -0.12406216 -0.25001946 -0.30825406
0001b0 e9 3d 10 3e 64 35 b7 bb 04 c8 33 3e d7 4e b9 3d
       0.14086117 -0.0055910815 0.17556769 0.09048241
0001c0 96 93 b4 3d 27 0f c8 3d e5 f5 19 3e 7e ca a8 3e
       0.08817212 0.09768515 0.15035208 0.3296699
0001d0 cc f8 d5 3e 71 26 80 3e 95 54 4c 3d 75 b8 70 3e
       0.4179138 0.25029328 0.04988535 0.23507865
0001e0 6d 79 87 3e 9c da 89 3d eb d6 ac 3d 06 e0 8d 3e
       0.26459828 0.067311496 0.0843943 0.2770998
0001f0 59 63 50 3e ea 9e 82 3e 32 67 07 3e 03 c1 12 3e
       0.20350398 0.25511867 0.1322296 0.1433144
000200 5e c2 b8 3d 40 4a 2c 3e 2f 3e 72 3e dc 06 b4 3e
       0.090214476 0.16825199 0.23656534 0.35161483
000210 81 9b 82 3e 49 fc 9a 3e f2 0c b8 3e 14 71 d3 3c
       0.25509265 0.30270603 0.35947376 0.025810756
000220 a6 55 20 3d 3d 2c 6e 3e 24 9d 1e 3e 6e 69 bb 3e
       0.03914418 0.23259063 0.15489632 0.36603874
000230 3f fc 09 3e 10 47 92 3e 41 02 80 3e 26 b7 78 3e
       0.1347513 0.2856984 0.2500172 0.24288616
000240 1d f2 93 3e ed 12 80 3d 58 2a 97 3e b6 5d 8e 3e
       0.28895655 0.0625361 0.29524493 0.2780587
000250 35 69 9e 3e f3 37 d0 3e 8a 93 e5 3e 6e c1 e5 3d
       0.30939642 0.40667686 0.44839126 0.112185344
000260 5b 95 7c 3e 2b 77 1f 3e 28 86 18 3e 30 99 66 3e
       0.2466635 0.15572803 0.14894927 0.22519374
000270 cc e8 a4 3e 75 fb dc 3d 51 78 12 3e 7f a1 d4 3e
       0.3220886 0.10790149 0.1430371 0.41529462
000280 22 02 7d 3e b0 9d e1 3e 4f 25 9e be a2 89 ed bd
       0.24707845 0.4406562 -0.3088784 -0.11598517
000290 ff 4c 91 be 2e 17 18 bd 4e 41 7d be 86 9d 36 be
       -0.28379056 -0.03713148 -0.24731943 -0.17833528
0002a0 ac 47 a3 be 07 fc a9 be dc 06 45 be 08 54 93 be
       -0.3189062 -0.33200094 -0.19240898 -0.28775048
0002b0 59 5b 87 bc f3 19 dd bd 35 a9 06 be e2 a2 52 be
       -0.01652305 -0.10795965 -0.13150485 -0.20569947
0002c0 20 80 ad 3c 78 68 87 be 94 06 d3 bd 32 58 88 be
       0.021179259 -0.2644689 -0.10303989 -0.26629788
0002d0 1c ea 9c 3d bf 99 31 be 94 32 14 be b4 cd 6e be
       0.0766184 -0.17343806 -0.14472419 -0.23320657
0002e0 f5 b5 e5 3d c7 d9 26 be f1 09 3c 3b 8d 45 49 bd
       0.11216346 -0.16294013 0.002869245 -0.049138594
0002f0 ff da 92 be 6c 3d 37 3d e0 db 3d bc a4 5c 89 bd
       -0.28682706 0.04473631 -0.011588067 -0.06707123
000300 1f 0e c4 3d 66 a7 8c 3e ef d1 80 3d e1 f2 f3 3d
       0.09573006 0.27471465 0.06290042 0.1191156
000310 16 a3 80 3e 2b b2 d0 3d bc 3c 17 3e 27 ca 9f 3e
       0.25124425 0.10190233 0.14769262 0.31208917
000320 25 32 e2 3d db 3f fa 3d 3e 5e 56 3e 57 3d 26 3e
       0.110447206 0.12219211 0.20934388 0.16234337
000330 60 a4 ee 3d 25 02 32 3e e5 4d d6 3e fd ac a8 3e
       0.11652446 0.1738363 0.41856304 0.3294448
000340 96 27 9c 3e 06 01 8d 3e ee fd b0 3e 0c 83 64 3e
       0.30498952 0.27539843 0.34568733 0.22315615
000350 95 55 cf 3c d4 c2 71 3e e2 bd 51 3e 08 95 e0 3e
       0.025309363 0.23609477 0.20482591 0.43863702
000360 6c 0a da bc c3 a8 0f be 65 e8 40 3d 8a ee 3e be
       -0.026616298 -0.14029221 0.04709663 -0.18645683
000370 79 c7 63 bc 62 46 fb 3d ab 7e 6a bd 23 eb 32 3e
       -0.013902538 0.12269284 -0.057249706 0.1747251
000380 f6 14 da bc bc a2 11 be 66 82 e9 3d 52 cf 2b be
       -0.026621323 -0.14222234 0.11401825 -0.16778305
000390 81 70 c0 bd 40 d6 f5 3d 5b f4 08 3e 99 cf ea bd
       -0.093964584 0.120037556 0.13374464 -0.11465377
0003a0 a6 59 26 3c c1 3c ae bd 86 53 b1 3d 62 3a 28 be
       0.01015321 -0.08507682 0.08658509 -0.16428521
0003b0 15 a6 fa bd b1 69 11 3e 83 a5 b8 bd ee 63 1d be
       -0.12238709 0.14200474 -0.09015944 -0.15370151
0003c0 95 87 9e bc a7 7b 14 be 34 bf a2 bd 7c 90 0e bd
       -0.01935176 -0.14500295 -0.07946625 -0.03480576
0003d0 90 19 01 be 72 8e 1c 3e ea 1b 57 bd 18 12 01 3e
       -0.12607408 0.15288714 -0.052516855 0.12604558
0003e0 8c 45 65 3d 4a c5 a8 3d 75 bf 73 3d f8 0e 83 bd
       0.05597453 0.08240755 0.05950876 -0.063993394
0003f0 ff bd bf bd 48 f5 89 bd 0c 04 e2 3d 2b 01 15 3e
       -0.09362411 -0.06736237 0.11035928 0.14551227

model_6/conv2d_21/Conv2D_bias f4 [16]
000000 39 23 cb 3d c7 e2 db bc 67 f1 17 3d e2 e5 4f 3e
       0.099188276 -0.026841534 0.037095454 0.20302537
000010 8b e0 34 3b fd 05 3b bd 7d ba b8 3d f0 74 3d bc
       0.0027599658 -0.045660008 0.09019945 -0.011563525
000020 d4 0c 94 bd 15 f4 44 bd 0b 7c 0c 3c 48 e7 4a 3e
       -0.07229009 -0.048084337 0.008574496 0.1981479
000030 66 f3 93 3d 9c c5 27 3e d3 cc 08 3c 59 1c 6f bd
       0.07224159 0.16383976 0.008349615 -0.058376644

model_6/conv2d_22/Conv2D/ReadVariableOp i1 [64, 3, 3, 32] scale=0.0023727652 zero_point=0
000000 ce e5 e4 01 29 23 09 d4 f2 f8 f6 0b 0d 01 23 ed
       -0.11863826 -0.06406466 -0.06643742 0.0023727652 0.09728337 0.08304678 0.021354888 -0.10440167 -0.03321871 -0.018982122 -0.023727652 0.026100418 0.030845948 0.0023727652 0.08304678 -0.04508254
000010 26 eb e4 04 e5 c8 0e 09 19 fe 12 e9 d1 02 1d d6
       0.09016508 -0.04982807 -0.06643742 0.009491061 -0.06406466 -0.13287485 0.03321871 0.021354888 0.05931913 -0.0047455304 0.042709775 -0.0545736 -0.11151996 0.0047455304 0.068810195 -0.09965614
000020 0d 12 dd 06 08 1d fe ce e6 24 fa f0 d5 08 31 1b
       0.030845948 0.042709775 -0.08304678 0.014236592 0.018982122 0.068810195 -0.0047455304 -0.11863826 -0.061691895 0.08541955 -0.014236592 -0.037964243 -0.10202891 0.018982122 0.1162655 0.06406466
000030 f0 f2 f1 f4 ed 0b e4 dd e8 0c f4 cf dc e5 0b 10
       -0.037964243 -0.03321871 -0.03559148 -0.028473184 -0.04508254 0.026100418 -0.06643742 -0.08304678 -0.056946367 0.028473184 -0.028473184 -0.1162655 -0.08541955 -0.06406466 0.026100418 0.037964243
000040 c5 ee 07 e7 11 0d db d5 f4 15 cd f8 da 21 1d 12
       -0.13999315 -0.042709775 0.016609356 -0.05931913 0.040337007 0.030845948 -0.087792315 -0.10202891 -0.028473184 0.04982807 -0.121011026 -0.018982122 -0.09016508 0.07830125 0.068810195 0.042709775
000050 02 14 06 13 f1 e0 ec 07 0c 04 e2 f7 dd fb 21 0b
       0.0047455304 0.047455303 0.014236592 0.04508254 -0.03559148 -0.07592849 -0.047455303 0.016609356 0.028473184 0.009491061 -0.07118296 -0.021354888 -0.08304678 -0.011863826 0.07830125 0.026100418
000060 0f 16 0d 1b 18 14 ed d1 21 14 0c 0b 15 de ed 0b
       0.03559148 0.052200835 0.030845948 0.06406466 0.056946367 0.047455303 -0.04508254 -0.11151996 0.07830125 0.047455303 0.028473184 0.026100418 0.04982807 -0.080674015 -0.04508254 0.026100418
000070 f8 f6 ea 2b 16 d0 db df 14 06 ed 27 27 0d ed fe
       -0.018982122 -0.023727652 -0.052200835 0.10202891 0.052200835 -0.113892734 -0.087792315 -0.07830125 0.047455303 0.014236592 -0.04508254 0.09253784 0.09253784 0.030845948 -0.04508254 -0.0047455304
000080 f3 02 12 e5 32 f4 00 0b f8 fa 12 1d 01 05 fc fb
       -0.030845948 0.0047455304 0.042709775 -0.06406466 0.11863826 -0.028473184 0.0 0.026100418 -0.018982122 -0.014236592 0.042709775 0.068810195 0.0023727652 0.011863826 -0.009491061 -0.011863826
000090 15 12 0a f7 fb f0 08 10 e0 18 fc e1 d9 e9 24 f4
       0.04982807 0.042709775 0.023727652 -0.021354888 -0.011863826 -0.037964243 0.018982122 0.037964243 -0.07592849 0.056946367 -0.009491061 -0.07355572 -0.09253784 -0.0545736 0.08541955 -0.028473184
0000a0 08 0a fb 0e ff 0f 07 ee 1a 04 14 0a 20 d3 07 b5
       0.018982122 0.023727652 -0.011863826 0.03321871 -0.0023727652 0.03559148 0.016609356 -0.042709775 0.061691895 0.009491061 0.047455303 0.023727652 0.07592849 -0.106774434 0.016609356 -0.17795739
0000b0 e6 fd da 02 f2 d9 0a de d1 db f8 07 ce f7 26 fa
       -0.061691895 -0.007118296 -0.09016508 0.0047455304 -0.03321871 -0.09253784 0.023727652 -0.080674015 -0.11151996 -0.087792315 -0.018982122 0.016609356 -0.11863826 -0.021354888 0.09016508 -0.014236592
0000c0 e9 ee 00 ea f6 e3 08 ef ef f8 ed f9 eb 03 07 e6
       -0.0545736 -0.042709775 0.0 -0.052200835 -0.023727652 -0.068810195 0.018982122 -0.040337007 -0.040337007 -0.018982122 -0.04508254 -0.016609356 -0.04982807 0.007118296 0.016609356 -0.061691895
0000d0 f3 e3 f5 0b 1d fa 06 e6 15 ff 29 e2 ff d3 f6 ef
       -0.030845948 -0.068810195 -0.026100418 0.026100418 0.068810195 -0.014236592 0.014236592 -0.061691895 0.04982807 -0.0023727652 0.09728337 -0.07118296 -0.0023727652 -0.106774434 -0.023727652 -0.040337007
0000e0 0f 11 35 1a f0 e4 0d 1d 06 fd f8 16 01 3b 0b 0a
       0.03559148 0.040337007 0.12575656 0.061691895 -0.037964243 -0.06643742 0.030845948 0.068810195 0.014236592 -0.007118296 -0.018982122 0.052200835 0.0023727652 0.13999315 0.026100418 0.023727652
0000f0 26 11 07 cd 0d 2f 1a 1a 19 f7 0b f6 f1 1f f9 26
       0.09016508 0.040337007 0.016609356 -0.121011026 0.030845948 0.11151996 0.061691895 0.061691895 0.05931913 -0.021354888 0.026100418 -0.023727652 -0.03559148 0.07355572 -0.016609356 0.09016508

model_6/conv2d_22/Conv2D_bias f4 [64]
000000 b7 74 74 3c 8e 1e d8 bb d2 bb 34 3c dd 30 22 bc
       0.014920405 -0.0065954393 0.011031108 -0.009899345
000010 61 74 95 3b f8 74 ba bc 22 c5 3d bc 61 4b cb 3c
       0.0045609926 -0.022760853 -0.011582645 0.024816217
000020 81 a6 15 3d 1e 8c 6e bb cc 23 dd 3b 96 fe ac 3b
       0.036535744 -0.0036399434 0.006748652 0.0052793724
000030 ff ca 69 bc 27 55 1f bc 30 42 54 3c df 7b 57 3c
       -0.014269589 -0.009724892 0.012955233 0.013152092
000040 4e d2 84 3c 78 b8 89 3b 64 68 2c bc 02 21 8e 3c
       0.016213562 0.0042028986 -0.010522936 0.017349724
000050 b5 eb a6 3b 46 1a 01 bc 83 29 e4 b9 bf 6a 46 bb
       0.0050940164 -0.007879799 -0.00043518477 -0.0030276028
000060 0b dd 02 3d 52 42 0c bc 0b de a1 3c 36 6f 96 3b
       0.031949084 -0.008560734 0.019759199 0.004590894
000070 74 81 14 3c e8 8a 33 3c c3 71 ef 3a 7a 53 86 bc
       0.009064067 0.010958411 0.0018268157 -0.016397227
000080 4a e2 8e 3c 8e d5 bf 3a 9f cf 67 3c 14 26 e0 3b
       0.017441887 0.0014635788 0.014148622 0.0068404768
000090 55 da ea 3b ca 18 4c bb 23 71 d3 3b c2 3b be 3c
       0.0071671405 -0.0031142705 0.006452696 0.023221854
0000a0 b7 82 61 3b ba 03 8f 3b 16 fa ef 3c 2a 10 1a bc
       0.0034410188 0.004364458 0.029294055 -0.009403268
0000b0 3d 77 f7 37 41 aa 81 3b 03 23 bd 3c ad ff d2 bc
       2.950022e-05 0.0039570634 0.023087984 -0.025756681
0000c0 3d 65 3c bc 78 1d 66 bc 53 3f 77 3c 54 17 ab bb
       -0.011498746 -0.014045112 0.015090781 -0.005221287
0000d0 e6 b4 ef 3a fe b0 f2 3b 27 25 52 bb 33 4f 18 bc
       0.0018288165 0.007406353 -0.0032065602 -0.009296226
0000e0 0a 44 d4 3c 5c c7 8a bb 25 e1 c2 3c 19 e2 11 3b
       0.02591135 -0.0042351913 0.023788998 0.002226001
0000f0 12 4c 27 3c ba 63 a9 3c 89 2d 19 3c ef 66 35 3c
       0.010211008 0.020677436 0.009349235 0.011071905

model_6/dense_16/MatMul/ReadVariableOp/transpose i1 [64, 256] scale=0.002578063 zero_point=0
000000 18 e7 e1 1b 13 0e f3 ee 34 fe 06 f7 de df 2e eb
       0.06187351 -0.064451575 -0.07991995 0.0696077 0.048983194 0.03609288 -0.03351482 -0.046405133 0.13405928 -0.005156126 0.015468378 -0.023202566 -0.08765414 -0.08507608 0.11859089 -0.054139324
000010 d0 33 29 33 d0 ff ef 15 3d 15 18 f6 17 d1 fa 2e
       -0.12374702 0.13148122 0.10570058 0.13148122 -0.12374702 -0.002578063 -0.04382707 0.054139324 0.15726183 0.054139324 0.06187351 -0.02578063 0.059295446 -0.121168956 -0.015468378 0.11859089
000020 23 04 ee 3c 03 d9 cc 3a 2b 0b ee e1 ff 16 ee f2
       0.0902322 0.010312252 -0.046405133 0.15468377 0.007734189 -0.10054445 -0.13405928 0.14952765 0.110856704 0.028358692 -0.046405133 -0.07991995 -0.002578063 0.056717385 -0.046405133 -0.03609288
000030 34 e8 e3 34 2e 05 ed e6 1f c7 f1 13 f6 1e cf df
       0.13405928 -0.06187351 -0.07476383 0.13405928 0.11859089 0.012890315 -0.048983194 -0.06702964 0.07991995 -0.14694959 -0.038670942 0.048983194 -0.02578063 0.077341884 -0.12632509 -0.08507608
000040 ee f3 4e 27 3f 01 01 19 1a ed 16 36 e0 d3 da 2d
       -0.046405133 -0.03351482 0.2010889 0.10054445 0.16241796 0.002578063 0.002578063 0.064451575 0.06702964 -0.048983194 0.056717385 0.1392154 -0.082498014 -0.116012834 -0.09796639 0.116012834
000050 19 ed cb f4 08 1f da 21 23 dd 25 37 13 1e 0e 02
       0.064451575 -0.048983194 -0.13663733 -0.030936755 0.020624503 0.07991995 -0.09796639 0.08507608 0.0902322 -0.0902322 0.09538833 0.14179346 0.048983194 0.077341884 0.03609288 0.005156126
000060 06 20 11 fe 1e d9 06 26 02 1c 45 38 12 ed 2b f3
       0.015468378 0.082498014 0.04382707 -0.005156126 0.077341884 -0.10054445 0.015468378 0.09796639 0.005156126 0.07218576 0.17788634 0.14437152 0.046405133 -0.048983194 0.110856704 -0.03351482
000070 0c d6 0c 0e f0 d2 c8 0d 34 2f 2e 07 e6 2a e6 29
       0.030936755 -0.10827865 0.030936755 0.03609288 -0.041249007 -0.11859089 -0.14437152 0.03351482 0.13405928 0.121168956 0.11859089 0.01804644 -0.06702964 0.10827865 -0.06702964 0.10570058
000080 d3 05 e3 0f 04 27 e0 00 2b 15 ce e0 3d 1b 2b 0b
       -0.116012834 0.012890315 -0.07476383 0.038670942 0.010312252 0.10054445 -0.082498014 0.0 0.110856704 0.054139324 -0.12890315 -0.082498014 0.15726183 0.0696077 0.110856704 0.028358692
000090 ce 1a 0c d9 d4 f8 eb 31 14 20 e6 2e 31 fe 0e e0
       -0.12890315 0.06702964 0.030936755 -0.10054445 -0.11343477 -0.020624503 -0.054139324 0.12632509 0.05156126 0.082498014 -0.06702964 0.11859089 0.12632509 -0.005156126 0.03609288 -0.082498014
0000a0 f4 21 b8 d4 30 19 36 27 f2 ce 24 dd ec 1e e4 09
       -0.030936755 0.08507608 -0.18562053 -0.11343477 0.12374702 0.064451575 0.1392154 0.10054445 -0.03609288 -0.12890315 0.092810266 -0.0902322 -0.05156126 0.077341884 -0.07218576 0.023202566
0000b0 e3 2d 0e fa 1a c7 fe d9 d8 ed 34 19 c8 ee 0b d3
       -0.07476383 0.116012834 0.03609288 -0.015468378 0.06702964 -0.14694959 -0.005156126 -0.10054445 -0.10312252 -0.048983194 0.13405928 0.064451575 -0.14437152 -0.046405133 0.028358692 -0.116012834
0000c0 25 cf d9 df 1a f8 05 38 43 c9 d7 d5 f2 0d c5 10
       0.09538833 -0.12632509 -0.10054445 -0.08507608 0.06702964 -0.020624503 0.012890315 0.14437152 0.17273022 -0.14179346 -0.10570058 -0.110856704 -0.03609288 0.03351482 -0.15210572 0.041249007
0000d0 03 d3 f4 18 03 e9 e3 04 f6 2d 2b 27 2e 18 ff d5
       0.007734189 -0.116012834 -0.030936755 0.06187351 0.007734189 -0.059295446 -0.07476383 0.010312252 -0.02578063 0.116012834 0.110856704 0.10054445 0.11859089 0.06187351 -0.002578063 -0.110856704
0000e0 ce 1e 00 d8 41 cf 13 f8 c3 f9 4c f0 e1 cb f4 e6
       -0.12890315 0.077341884 0.0 -0.10312252 0.1675741 -0.12632509 0.048983194 -0.020624503 -0.15726183 -0.01804644 0.19593278 -0.041249007 -0.07991995 -0.13663733 -0.030936755 -0.06702964
0000f0 09 be 30 03 3a 22 28 2b e0 12 3a e4 f4 e1 e2 ba
       0.023202566 -0.17015216 0.12374702 0.007734189 0.14952765 0.08765414 0.10312252 0.110856704 -0.082498014 0.046405133 0.14952765 -0.07218576 -0.030936755 -0.07991995 -0.077341884 -0.1804644

model_6/dense_16/MatMul_bias f4 [64]
000000 30 ec 0c 3c 21 96 44 3c 7e 24 98 ba d5 d5 67 3b
       0.008601233 0.011998684 -0.0011607555 0.0035375257
000010 48 1d 4f 3a 29 e8 82 3b 63 60 0d 3c ca 8c 8a bb
       0.00079007866 0.003994961 0.008628937 -0.004228209
000020 8e af 70 3b e7 12 a7 3c 34 e0 d8 3a da 4f 5b 3c
       0.0036725732 0.020394756 0.001654631 0.013385737
000030 42 d2 90 bb ea 13 a9 3c 3c fb c5 3b 80 1a 13 bb
       -0.004419596 0.020639379 0.0060419124 -0.0022446215
000040 4f 89 d2 3b 25 2c af 3c ce 34 b8 3b 46 86 8d 3b
       0.00642506 0.021383354 0.005621529 0.004318985
000050 29 3c 43 3c 29 28 28 3c 0d b9 8a ba 9f 5c 21 bc
       0.011916199 0.010263481 -0.0010583714 -0.009848743
000060 e3 92 9d 3c 5d 87 30 3c 49 57 43 3c 0a cb 69 bc
       0.01923508 0.010774461 0.011922666 -0.0142696
000070 7c 2b 8b 3c 19 99 86 3c e0 12 73 3c 9c fe ce 3c
       0.016988508 0.016430425 0.014836043 0.025267892
000080 26 8b 08 3c a5 55 78 bc 98 6c e1 3c 4d e8 72 3a
       0.008333957 -0.015157138 0.027517602 0.0009266183
000090 b9 c2 e5 bb 1f d7 58 3c 18 66 4b 3c 80 a4 57 3c
       -0.007011738 0.013234883 0.012414478 0.013161778
0000a0 9a 80 ca 3b 2b fa 6e 3c 92 d1 bd 3b 6b c1 38 3b
       0.0061798813 0.014586012 0.005792805 0.0028191458
0000b0 fe 44 aa 3b 82 6a 22 3d b1 b5 cd 3b 39 14 24 ba
       0.005196213 0.039652355 0.006277763 -0.0006259117
0000c0 86 3d a0 3b d1 68 4a 3c 6c 01 cd 3b 4d d3 e1 3c
       0.0048901467 0.012354092 0.006256273 0.027566576
0000d0 0d 48 91 3c 02 60 2a bc 7c 7f a9 3c b2 e6 24 3b
       0.017734552 -0.010398867 0.020690672 0.002516192
0000e0 bd 2f 46 3c 99 46 8d 3c 4a a8 64 bc f9 f2 3a 3b
       0.012096343 0.017245578 -0.013956139 0.002852617
0000f0 aa d5 da 38 96 f6 e1 3b e4 1e bd ba df 97 9e 3b
       0.00010434848 0.0068958504 -0.0014428762 0.004839882

model_6/dense_17/MatMul/ReadVariableOp/transpose i1 [26, 64] scale=0.0034796656 zero_point=0
000000 ba 16 25 11 38 f7 2d 37 aa 39 18 03 55 12 3a b4
       -0.24357659 0.076552644 0.12874763 0.059154317 0.19486128 -0.031316992 0.15658495 0.1913816 -0.29925123 0.19834094 0.08351198 0.010438997 0.29577157 0.062633984 0.20182061 -0.26445457
000010 ab 43 b7 07 54 26 10 b4 0c 44 d7 29 ff d6 b1 4b
       -0.29577157 0.2331376 -0.2540156 0.02435766 0.2922919 0.13222729 0.05567465 -0.26445457 0.04175599 0.23661727 -0.1426663 0.1426663 -0.0034796656 -0.14614595 -0.27489358 0.2609749
000020 b7 22 b9 e4 e6 bb 41 0e d8 ff c1 3b 42 f0 b4 c2
       -0.2540156 0.11830863 -0.24705626 -0.09743064 -0.090471305 -0.24009693 0.22617826 0.04871532 -0.13918662 -0.0034796656 -0.21921894 0.20530027 0.22965793 -0.05567465 -0.26445457 -0.21573927
000030 c2 2f d3 2a f9 e2 2c 01 e4 a9 fa c7 2c 07 1a a7
       -0.21573927 0.16354428 -0.15658495 0.14614595 -0.02435766 -0.104389966 0.15310529 0.0034796656 -0.09743064 -0.30273092 -0.020877995 -0.19834094 0.15310529 0.02435766 0.090471305 -0.30969024
000040 bb d9 d4 dc e3 51 cc 38 e6 01 c4 03 f7 06 46 fc
       -0.24009693 -0.13570696 -0.15310529 -0.12526797 -0.100910306 0.2818529 -0.18094261 0.19486128 -0.090471305 0.0034796656 -0.20877993 0.010438997 -0.031316992 0.020877995 0.24357659 -0.013918662
000050 18 e2 33 45 de 2c 01 ff a4 a0 c2 0a ff 2b 01 e5
       0.08351198 -0.104389966 0.17746295 0.24009693 -0.11830863 0.15310529 0.0034796656 -0.0034796656 -0.32012925 -0.3340479 -0.21573927 0.034796655 -0.0034796656 0.14962561 0.0034796656 -0.09395097
000060 0f f6 b7 21 c4 b9 3d f2 22 09 37 d8 2c b3 de d9
       0.052194983 -0.034796655 -0.2540156 0.11482897 -0.20877993 -0.24705626 0.2122596 -0.04871532 0.11830863 0.031316992 0.1913816 -0.13918662 0.15310529 -0.26793426 -0.11830863 -0.13570696
000070 47 35 bf 3c 1c b7 c5 aa f3 ea 43 03 fc 37 01 c3
       0.24705626 0.18442228 -0.22617826 0.20877993 0.09743064 -0.2540156 -0.20530027 -0.29925123 -0.045235652 -0.076552644 0.2331376 0.010438997 -0.013918662 0.1913816 0.0034796656 -0.2122596
000080 2e 17 f3 d4 2b f1 1e 03 2b f4 be ff ed 51 c4 db
       0.16006462 0.08003231 -0.045235652 -0.15310529 0.14962561 -0.052194983 0.104389966 0.010438997 0.14962561 -0.04175599 -0.22965793 -0.0034796656 -0.06611364 0.2818529 -0.20877993 -0.12874763
000090 f7 a3 08 1c b8 e8 d0 11 37 d7 a8 27 67 34 41 13
       -0.031316992 -0.3236089 0.027837325 0.09743064 -0.25053594 -0.08351198 -0.16702396 0.059154317 0.1913816 -0.1426663 -0.30621058 0.13570696 0.35840556 0.18094261 0.22617826 0.06611364
0000a0 b4 c7 e8 ae f5 2b d1 f0 e0 4e 20 31 f8 3d 10 00
       -0.26445457 -0.19834094 -0.08351198 -0.2853326 -0.038276322 0.14962561 -0.16354428 -0.05567465 -0.1113493 0.27141392 0.1113493 0.17050362 -0.027837325 0.2122596 0.05567465 0.0
0000b0 f5 e4 fa 28 f4 c7 1d e6 f3 ce 14 d1 15 9b 28 2e
       -0.038276322 -0.09743064 -0.020877995 0.13918662 -0.04175599 -0.19834094 0.100910306 -0.090471305 -0.045235652 -0.17398328 0.06959331 -0.16354428 0.07307298 -0.35144624 0.13918662 0.16006462
0000c0 3f e1 24 43 ee 17 cb e4 3d b5 31 31 fb f6 a9 97
       0.21921894 -0.10786963 0.12526797 0.2331376 -0.062633984 0.08003231 -0.18442228 -0.09743064 0.2122596 -0.2609749 0.17050362 0.17050362 -0.017398328 -0.034796655 -0.30273092 -0.36536488
0000d0 2b 2f 11 25 a3 10 27 d6 e1 ef c3 2b f7 0e ec c3
       0.14962561 0.16354428 0.059154317 0.12874763 -0.3236089 0.05567465 0.13570696 -0.14614595 -0.10786963 -0.059154317 -0.2122596 0.14962561 -0.031316992 0.04871532 -0.06959331 -0.2122596
0000e0 d5 33 3b fb ff 1b e6 db 34 1b f4 46 bc 0c c4 f9
       -0.14962561 0.17746295 0.20530027 -0.017398328 -0.0034796656 0.09395097 -0.090471305 -0.12874763 0.18094261 0.09395097 -0.04175599 0.24357659 -0.23661727 0.04175599 -0.20877993 -0.02435766
0000f0 c4 b8 8a 47 3a 00 c0 c3 f3 dd eb 44 a8 b9 f7 be
       -0.20877993 -0.25053594 -0.41060054 0.24705626 0.20182061 0.0 -0.2226986 -0.2122596 -0.045235652 -0.12178829 -0.07307298 0.23661727 -0.30621058 -0.24705626 -0.031316992 -0.22965793

model_6/dense_17/MatMul_bias f4 [26]
000000 8d cd f4 b8 53 f3 81 bb 21 fc 46 3c 1f 37 a4 bb
       -0.000116731135 -0.003965774 0.012145073 -0.0050114538
000010 d0 82 67 3b 9e f5 8a 3b b9 aa 2f bc 7c d2 a1 3b
       0.0035325773 0.0042407056 -0.010721856 0.004938422
000020 84 74 7d 3c 21 80 65 bc ea a8 3c bc 11 7c 24 3c
       0.015469674 -0.014007599 -0.011514882 0.010039345
000030 e4 27 0e 3a bd 1c 99 bc ea 74 2b bc 94 73 9b bc
       0.0005422814 -0.018690461 -0.010464886 -0.01897601
000040 b3 fd 4f 3b 6f cb 7b bb 74 cf b2 3b a5 1f 38 3c
       0.003173691 -0.0038420816 0.0054568592 0.011238013
000050 d4 83 90 3c 8c dd c1 bc 37 d5 27 3c 53 fc d2 bb
       0.017640986 -0.023665212 0.0102437055 -0.006438771
000060 fe 87 e8 3a 34 a4 b7 3b
       0.0017740724 0.0056042913

model_6/separable_conv2d_13/separable_conv2d/ReadVariableOp f4 [1, 3, 3, 16]
000000 2b 71 54 bd 0b ca 02 be cb 14 81 be 33 ba c9 3d
       -0.051865738 -0.12772386 -0.25211176 0.09849968
000010 eb 09 8e bd 62 9d 72 3e 3f 0a 54 3d da dc 87 3e
       -0.069354855 0.2369285 0.051767584 0.26535684
000020 46 13 50 be ef 58 4d 3e ed d0 31 3e 61 0d 63 3d
       -0.20319852 0.20053457 0.17364855 0.05543268
000030 ed 67 60 be 3c ff b6 3d a8 10 4b 3e 4c 2d 13 be
       -0.21914645 0.08935401 0.19830573 -0.14372748
000040 28 fa 07 3d 83 26 da 3d 1c 1a 94 be fd 90 73 be
       0.033197552 0.10651877 -0.2892617 -0.23785777
000050 0a f1 12 be 69 c9 fc 3d c6 02 e2 bd 3e af 52 3e
       -0.14349762 0.123431034 -0.11035685 0.20574662
000060 88 58 94 3d b7 3e 0a bd d1 18 5f be 1a 9a 73 be
       0.072434485 -0.033751216 -0.2178681 -0.23789254
000070 9f 84 0f be 5f e2 bf bd 03 95 84 bd 6f 71 2b 3e
       -0.14015435 -0.09369349 -0.06473734 0.1674249
000080 c4 d7 c1 3d b1 d7 6f be 43 93 e0 3c b8 d9 a9 be
       0.09464982 -0.23422123 0.02741397 -0.3317392
000090 4e eb f5 bd a9 26 d9 bb 15 f7 98 be 2e bc dd bd
       -0.120077714 -0.006626923 -0.2987601 -0.10826908
0000a0 1e 8c ea bd f3 73 82 3d a1 67 7f be ec 56 43 be
       -0.114525065 0.06369772 -0.24941875 -0.19076127
0000b0 54 79 15 3e 7b b7 db be b6 be ab be b2 11 93 3e
       0.14597064 -0.42913422 -0.33543938 0.28724438
0000c0 24 6d 66 3e eb a1 69 bd 82 c8 4a bd 93 4f 8f bd
       0.22502571 -0.057039183 -0.049507625 -0.069975995
0000d0 4b 83 1e 3e a2 38 17 3e 28 a0 48 3c 9f d6 8e 3e
       0.15479772 0.14767697 0.0122452155 0.27898118
0000e0 2c 02 3c be 5c dc 37 3e 88 5c e9 3d 48 3b 7e bd
       -0.18360204 0.17955154 0.11394602 -0.062068254
0000f0 9d a1 e9 bc d5 f0 c5 bd 30 be 18 3e cd 42 72 be
       -0.028519446 -0.09665076 0.14916301 -0.23658295
000100 0e 04 63 3e e8 47 01 be 45 0d 9b bd 89 12 fd 3d
       0.22169515 -0.12625086 -0.0757089 0.12357051
000110 fc f0 80 bc d8 24 5c 3d 34 14 5f bd be 3c 1a be
       -0.01573991 0.053746074 -0.054462627 -0.15062234
000120 15 c9 0c be 10 ca 15 3e ea 68 19 3d a3 f2 db bd
       -0.13748582 0.14627862 0.03745357 -0.10739639
000130 e5 78 3d 3e d6 2e 9a be fc 45 ed 3a 4d 29 c4 3d
       0.18503149 -0.30113858 0.0018102522 0.0957819
000140 af 87 2d 3e 64 85 6d be 46 f2 82 3d 28 77 21 bd
       0.1694629 -0.23195416 0.06393866 -0.039420277
000150 e0 5e 14 be 16 ed 92 bd a2 10 d6 bd 99 10 a6 be
       -0.14489317 -0.07174127 -0.10452391 -0.32434538
000160 fa 48 b1 bd 35 c0 05 3e 15 c8 0b be d8 68 b7 bd
       -0.08656497 0.13061602 -0.13650544 -0.08955544
000170 96 24 a9 3e cb 43 fe be 0c f0 40 bd ee 1c d9 bd
       0.33035725 -0.49661097 -0.047103927 -0.10601221
000180 ff c2 b4 3b 65 50 f3 3d 2a eb 86 3e bf 0b 1f 3f
       0.0055164094 0.118805684 0.2635129 0.621273
000190 5e 43 04 3e 79 42 92 3c 65 67 0f 3e c8 dd 92 3c
       0.12916324 0.017853962 0.14004286 0.01792802
0001a0 7a 7f 7f be 82 a7 3e be 14 cb 8a 3e 4a b5 9c 3e
       -0.24950972 -0.18618587 0.2710806 0.30607063
0001b0 d7 55 1d 3e 38 3e 9a be 13 fa 6d 3d 6a e7 49 be
       0.15364777 -0.30125594 0.058099817 -0.19717184
0001c0 65 b8 87 3e 79 dd 1f be 9a 16 81 3e a3 a2 f3 3e
       0.2650787 -0.15611829 0.25212556 0.4758502
0001d0 fe c9 88 3e 2a e4 11 be d3 f9 27 3d 7a 39 a3 3c
       0.26716608 -0.14247194 0.041009735 0.019924868
0001e0 e4 a6 8d bd a2 ce 3a bc 9c 99 92 3e 50 96 62 3d
       -0.069165975 -0.011401804 0.2863282 0.05531913
0001f0 5b 70 b0 3e 8b 83 c3 be 57 8b 0b 3e 33 74 82 ba
       0.3446072 -0.38186297 0.13627373 -0.0009952843
000200 9c 78 24 3e 54 ab f3 3d 66 c2 dc bd be 64 1a 3f
       0.16061634 0.118979126 -0.10779266 0.6030997
000210 8f 25 08 be ff a7 bf be 1a c5 19 3d 8c 5d 1d be
       -0.13295577 -0.37432858 0.037541486 -0.15367717
000220 0a ad eb bc 52 cd a5 bc a7 f9 24 be cb fd 9b bd
       -0.028769035 -0.020239506 -0.1611086 -0.076167665
000230 55 eb 2b 3e 88 9f 98 be c9 10 06 3e dd 03 36 be
       0.16788991 -0.29809213 0.1309234 -0.17774911

model_6/separable_conv2d_13/separable_conv2d/ReadVariableOp_1 f4 [32, 1, 1, 16]
000000 45 a4 97 3e 30 02 a2 bc 45 a1 6e be e5 70 b2 3e
       0.29617515 -0.019776434 -0.23303707 0.34851757
000010 19 d2 ad 3d 43 32 fe bd bf c2 45 3e fc 1e d1 be
       0.084873386 -0.124119304 0.19312571 -0.40843952
000020 2d 7d d2 3d 6c 86 53 be d4 06 95 be d1 6b 9c be
       0.10277782 -0.20656747 -0.29106772 -0.30551007
000030 87 21 26 be b1 b7 5e bd 34 08 62 be 11 ce 0d be
       -0.16223727 -0.0543744 -0.22073442 -0.1384814
000040 b8 07 5e be e9 ab 09 3d 3c c9 47 3d 26 eb 04 be
       -0.21682632 0.033611212 0.048775896 -0.12980327
000050 9e ec 24 bd 22 24 e5 bd 6f ad 8c bd 62 93 27 be
       -0.04026472 -0.111885324 -0.06869017 -0.16364816
000060 e4 85 cf 3e 06 45 c5 be eb 16 09 3e 98 97 9b be
       0.40531838 -0.38529223 0.13387649 -0.30389094
000070 13 f5 9d be 5e 1e b0 3e f2 34 64 be 11 06 e0 be
       -0.3085104 0.34398168 -0.22285822 -0.43754628
000080 39 74 a2 3e 0b d9 7f be c7 01 52 be 1b 0b 0c 3f
       0.31729296 -0.24985139 -0.2050849 0.54704446
000090 57 2f ce bc ee df a7 be a9 f9 b5 3e fb 5d 66 3e
       -0.025169058 -0.32788032 0.35542038 0.22496788
0000a0 16 54 76 be 55 88 db bd e3 c8 d2 be f0 90 62 be
       -0.24055514 -0.10719363 -0.4116889 -0.22125602
0000b0 08 e7 0f 3e 4e 51 a5 3e 89 09 bb bc 04 0d 14 3e
       0.14052975 0.32288593 -0.022831695 0.1445809
0000c0 74 fd 23 bd b2 3c 46 be 60 be a4 3d d6 3d 00 be
       -0.040036634 -0.19359091 0.08044124 -0.12523589
0000d0 b6 02 e1 3e b0 d8 02 3f f8 37 d5 be 80 f4 c7 3e
       0.4394738 0.5111189 -0.41644263 0.39053726
0000e0 47 5f 6d 3e 1c 18 61 3e a0 41 db 3e 86 9d 85 be
       0.23180877 0.21981853 0.42823505 -0.26096743
0000f0 cd cd 58 3e c1 e2 cf bd 38 00 48 3e 4b 6a d2 3d
       0.21172257 -0.10150672 0.19531333 0.1027418
000100 d0 6d c8 3e e2 3c 66 3e 85 de f6 3c 03 13 2f 3e
       0.3914628 0.22484162 0.030135402 0.17097096
000110 7f 7c fa 3d fb ca 6a be 86 fc fd be 5a 52 da be
       0.12230777 -0.22928993 -0.49606723 -0.42640954
000120 53 01 5d be b0 a3 ab bd 40 ee df 3e 36 43 9c be
       -0.21582536 -0.0838083 0.43736458 -0.30520028
000130 ef bc cf bd 4b e4 c5 bd 4e a3 96 3e 5d 4c b5 bd
       -0.10143458 -0.09662684 0.29421467 -0.08852456
000140 b6 11 23 be c0 23 74 3e d5 a1 df 3e 3b 4f 34 be
       -0.15924725 0.23841763 0.43678156 -0.17608349
000150 ff bf d4 3e c6 43 ad 3a 3c 41 01 bc a8 6f e7 bd
       0.4155273 0.0013219051 -0.007889088 -0.113005936
000160 63 68 a5 3e 10 7d 65 3c c2 a4 ac 3e f4 c1 c0 be
       0.32306203 0.014006868 0.3371945 -0.37647974
000170 dd 0b b4 be 6b e9 82 be 75 89 3a bc 44 cc 91 be
       -0.351653 -0.2556871 -0.011385311 -0.28476155
000180 5c 7f 02 be e2 c5 df 3d e4 5a 5a be 36 9d 8b bd
       -0.12743896 0.10926415 -0.21323735 -0.06817095
000190 33 8e af 3e 1c a1 65 3e cf 5a 17 3e 7d 62 ba 3e
       0.34288177 0.2242474 0.14780734 0.36403266
0001a0 d9 bd b2 3d 5a 46 a0 be e0 41 03 3f cd 80 ea be
       0.08727617 -0.31303674 0.5127239 -0.45801392
0001b0 95 89 89 3e b1 34 48 bd 25 f0 99 3e f0 20 96 3e
       0.2686278 -0.048878375 0.30066028 0.29322004
0001c0 b9 ef d7 3e 0e fe c2 3e a9 b9 71 3e 03 f0 bc be
       0.4217508 0.38084453 0.2360598 -0.36901864
0001d0 5a 43 1f bd 25 fc 09 be e9 96 1e 3e d5 92 47 be
       -0.03888259 -0.13475092 0.15487255 -0.19489606
0001e0 ca 86 ab bd 7a 86 fb bc a2 b6 76 be 14 b5 af be
       -0.08375318 -0.030703772 -0.24093106 -0.3431784
0001f0 a9 1b 8d 3e ce 1b 26 bd 7d bc fa be 69 52 d6 3e
       0.27560166 -0.04055386 -0.4897193 0.4185975
000200 58 d4 96 bd ef d7 6b be df 83 c4 3e 44 a3 b1 3d
       -0.0736472 -0.23031591 0.3838186 0.086737186
000210 e4 e3 00 bc 67 11 04 bf 47 d4 9b be 2b 8a f4 be
       -0.007866833 -0.51589054 -0.30435392 -0.47761664
000220 81 d5 3e 3e ee 92 4e 3e 11 48 5a 3d 9d bf 2c be
       0.18636133 0.20173237 0.053291384 -0.1686997
000230 14 7d c3 be 51 11 40 be f3 88 5a 3d 86 48 8e bd
       -0.38181365 -0.18756606 0.05335326 -0.069474265
000240 10 23 15 3e 5a ea 9f bd f2 74 b8 3d e9 3f 6e bd
       0.14564157 -0.07808371 0.090066805 -0.05816642
000250 f7 60 c9 3e 22 b8 ac 3e 31 0c c6 bd 1e b2 8f 3e
       0.3933179 0.33734232 -0.09670294 0.2806558
000260 64 7c 8f bc 8b 3d 9f bd 26 2e 0e 3d cb 7c f7 bd
       -0.017515369 -0.0777541 0.03471198 -0.12084349
000270 12 ce 96 3e c2 0a 7e be 27 da 89 3e 56 b3 7a be
       0.29454094 -0.24808791 0.2692425 -0.24482474
000280 3b 65 db be a9 b2 b3 3d 7b 72 ca be 41 ab 93 3e
       -0.4285067 0.08774311 -0.39540467 0.28841594
000290 cb 15 63 3e 5b d3 ec be 88 a3 6f be b7 5c 61 bd
       0.22176282 -0.46255 -0.23402226 -0.05502006
0002a0 6b fd 51 bd b0 be 7c be 64 8d b6 be a4 b5 8d 3e
       -0.05126707 -0.24682117 -0.35654747 0.27677643
0002b0 b8 1a 29 3e 98 ee 84 be bd 2c 6e be cc d5 85 be
       0.16514099 -0.25963283 -0.23259254 -0.26139677
0002c0 7d 3a b4 3e f0 4f 87 be a1 4f 94 be 8b cd 65 3f
       0.35200873 -0.26428175 -0.28967002 0.8976676
0002d0 52 39 5f bd 7d 54 4c 3e 26 7f ff 3d 17 9b fc bc
       -0.054498024 0.19954105 0.124754235 -0.030835671
0002e0 94 39 26 3e 91 2d 28 3e 00 f6 b0 3d 4d 79 89 3e
       0.16232902 0.16423632 0.08640671 0.26850358
0002f0 b3 93 ee 3e c4 f3 15 bf 32 bc b1 bd 27 19 1f 3e
       0.4659706 -0.5857508 -0.086784735 0.15536939
000300 e4 27 5c be c1 2e bb be bc 6c 58 be 1c da 5b be
       -0.21499592 -0.36559108 -0.21135229 -0.21469921
000310 4c c5 ce be 53 ea 7e be 4f 66 b2 3e e0 64 c4 be
       -0.403849 -0.24894075 0.3484368 -0.38358212
000320 eb cf ff 3d 25 c5 66 3e 9b d4 00 3d 9a c2 43 3e
       0.12490829 0.22536142 0.031452756 0.19117203
000330 22 8b 48 3e d3 03 79 3e a1 e1 4c bd 3a 04 08 bc
       0.19584325 0.24317865 -0.050019864 -0.008301789
000340 90 28 92 3d 83 e5 1e 3e 4d c5 86 be 87 68 bb 3e
       0.07136643 0.1551724 -0.26322404 0.36603186
000350 be c3 86 be 38 67 b4 3e 1e a6 82 3d ee 95 62 3a
       -0.26321214 0.35235 0.063793406 0.0008643557
000360 e9 ad c2 3d 48 38 57 3e b1 cb dc be 21 30 8c be
       0.09505827 0.21017563 -0.43124154 -0.2738047
000370 46 f9 88 3d c3 12 d6 be b4 47 90 3e d1 eb 71 bb
       0.0668817 -0.4181119 0.28179705 -0.003691424
000380 17 8f b7 3e b9 69 8e be e6 fd a2 3e dd 39 e6 bc
       0.35851356 -0.27815035 0.31834334 -0.028103763
000390 f5 7a ff 3d 53 eb 36 3d 5c a2 87 be 90 6b 9e 3e
       0.12474624 0.044658016 -0.26491058 0.3094144
0003a0 f4 87 14 3e 7b 03 1e be ed d5 c9 3e 85 76 eb 3b
       0.14504987 -0.15431015 0.39421025 0.0071857595
0003b0 a0 7e 70 be 93 94 1f 3e 79 f6 92 3d 93 c7 d3 be
       -0.23485804 0.1558402 0.07175917 -0.413632
0003c0 b0 db 6d 3e 6a 96 e0 be c8 af 3d 3e a2 da ef 3e
       0.23228335 -0.43864757 0.18524086 0.4684649
0003d0 c4 d0 96 be 30 68 9a 3e 84 94 80 bd c7 92 98 3e
       -0.2945615 0.30157614 -0.06278327 0.29799482
0003e0 0d d6 a9 3d 77 10 d3 3c 2f 45 3b be 77 69 12 bd
       0.0829278 0.025764687 -0.1828811 -0.03574511
0003f0 e5 ae e0 3d 05 f3 31 3e a1 46 d2 be 1a b7 9b 3e
       0.109708585 0.17377861 -0.4106951 0.30413133

model_6/separable_conv2d_13/separable_conv2d/depthwise_bias f4 [16]
000000 00 00 00 00 00 00 00 00 00 00 00 00 00 00 00 00
       0.0 0.0 0.0 0.0
000010 00 00 00 00 00 00 00 00 00 00 00 00 00 00 00 00
       0.0 0.0 0.0 0.0
000020 00 00 00 00 00 00 00 00 00 00 00 00 00 00 00 00
       0.0 0.0 0.0 0.0
000030 00 00 00 00 00 00 00 00 00 00 00 00 00 00 00 00
       0.0 0.0 0.0 0.0

model_6/separable_conv2d_13/separable_conv2d_bias f4 [32]
000000 51 6a 97 3d 20 c6 c1 3c 3d 1a 95 3c 35 9e 8f 3b
       0.07393325 0.023654044 0.018200988 0.0043828734
000010 e1 a3 a0 3d 3a 3d 9e 3d cc 95 b9 39 57 03 e6 3c
       0.078437574 0.07726522 0.00035397557 0.028077764
000020 f7 c6 a4 3c ab bc c2 3c 0d ce 03 3d c6 cd 27 3b
       0.020114405 0.023771605 0.032178927 0.0025604828
000030 cc 96 de 3b 3d 24 95 3d d2 05 b5 3c 34 ae e4 3d
       0.0067928787 0.072823025 0.022097502 0.11166039
000040 fa 5b 0a 3d 34 dd 80 3d 0c c1 39 3d 53 0d a9 3d
       0.033779122 0.06292191 0.04535012 0.082544945
000050 4b 00 3f 3d 24 e5 b8 3c 75 43 ed 3d e3 60 c8 3d
       0.04663114 0.0225702 0.11585132 0.09784105
000060 3c 2e 9c 3d 9b a5 fd 3c c0 4a 27 3d e7 41 b7 3c
       0.07626006 0.030962756 0.04084277 0.022370292
000070 5c a2 62 3d 3d 34 97 3d 9e 47 81 3c e8 a8 f0 3b
       0.05533062 0.073830105 0.01578122 0.007344354
