assets/models/two_digit_classifier.tflite (tflite, 56624 bytes, 16 tensors)

model_12/conv2d_56/Conv2D/ReadVariableOp f4 [16, 3, 3, 3]
0	0x3d17f5b2	0.037099548
1	0x3e3abf58	0.18237054
2	0x3e6dcc1d	0.23222394
3	0xbde42fc5	-0.11141924
4	0xbca25015	-0.019813577
5	0x3e31bdba	0.17357531
6	0xbda15173	-0.07876863
7	0x3dd2b479	0.10288329
8	0x3e2d4573	0.16921024
9	0x3e9709a9	0.29499558
10	0x3e38d099	0.18048324
11	0x3da1bbc0	0.078971386
12	0xbc43aee3	-0.011943552
13	0x3e521419	0.20515479
14	0x3e8bfa86	0.27339572
15	0x3e2520ee	0.16125843
16	0xbde465d7	-0.11152237
17	0x3ce3d180	0.027809858
18	0x3e92523a	0.2857836
19	0x3dd04215	0.10168854
20	0x3e9ef8d0	0.31049204
21	0x3e009d87	0.12560092
22	0x3e3f684f	0.18692134
23	0x3d648c9c	0.055798158
24	0xbcc410b2	-0.023933742
25	0x3d57c313	0.05267627
26	0x3e526f84	0.20550352
27	0x3e88f045	0.2674581
28	0xba2866dc	-0.00064240186
29	0x3da1fc3f	0.0790944
30	0x3e0241d2	0.12720421
31	0x3e9ae9d8	0.30256534
32	0x3e88449c	0.26614845
33	0x3dee9a49	0.11650521
34	0x3e715ed6	0.23571333
35	0x3e00bb36	0.12571415
36	0x3df04bc0	0.11733198
37	0xbc532aa2	-0.012888582
38	0xbe36d000	-0.17852783
39	0xbda7bb4d	-0.08190022
40	0xbdb9e2b5	-0.09076444
41	0xbe13262f	-0.14370035
42	0x3dfe3b4c	0.12413654
43	0xbd69c1a1	-0.057069425
44	0xbe232ccd	-0.15935059
45	0xbdc58a2c	-0.09645495
46	0xbe1daf5f	-0.1539893
47	0xbd01f8bd	-0.031731356
48	0xbe3ad4c4	-0.18245226
49	0xbe4f8152	-0.20264176
50	0xbdecb73f	-0.11558389
51	0xbe06d391	-0.13166644
52	0xbe6d22a5	-0.23157747
53	0xbd2a60d5	-0.041596252
54	0xbdaffbc8	-0.08592945
55	0x3cf1f862	0.029537383
56	0xbe49c611	-0.19704463
57	0xbe42f207	-0.19037639
58	0x3d2ce526	0.04221072
59	0x3d462112	0.048371382
60	0xbdb2ec43	-0.087364696
61	0xbe34978e	-0.17635939
62	0xbe58c4ba	-0.21168795
63	0xbe643f39	-0.22289743
64	0xbe8d93cd	-0.27651826
65	0x3d9b734d	0.07590351
66	0xbcf8439b	-0.030305674
67	0xbe21ef7e	-0.15814015
68	0xbe4dec90	-0.20109773
69	0xbde7ce5c	-0.11318657
70	0xbde93463	-0.11386945
71	0x3de4bf4a	0.11169298
72	0xbe12235c	-0.14271301
73	0x3acd7ebd	0.001567803
74	0xbdf5bc3b	-0.11998793
75	0x3d89e307	0.06732755
76	0xbca60b9a	-0.020269204
77	0xbdc03055	-0.093842186
78	0xbd8cfa4e	-0.06883679
79	0x3d98f93c	0.07469413
80	0xbd9e952a	-0.077432945
81	0xbe4bca9b	-0.19901507
82	0xbda064cf	-0.07831728
83	0xbe236692	-0.15957096
84	0xbdc5c2eb	-0.09656318
85	0x3e2e5ded	0.17028017
86	0x3dc08f7e	0.09402369
87	0x3e608485	0.21925552
88	0x3e143862	0.14474633
89	0xbd93bccb	-0.07213744
90	0xbe8a292d	-0.2698454
91	0xbcd33e4b	-0.02578654
92	0xbe85488b	-0.26031908
93	0x3d580409	0.052738223
94	0x3c8061a9	0.015671568
95	0x3dc7bba7	0.09752589
96	0xbbea220d	-0.0071451725
97	0x3e9943fb	0.29934677
98	0xbcc77506	-0.024347793
99	0xbe375d83	-0.17906766
100	0xbc1cac28	-0.00956253
101	0xbe033d95	-0.1281646
102	0x3d851c8a	0.06499584
103	0xbce24b44	-0.02762378
104	0x3bd297fb	0.006426809
105	0x3ea0235c	0.31276977
106	0x3e71e013	0.23620634
107	0x3e833446	0.2562582
108	0x3e505af3	0.20347194
109	0x3e47c49a	0.19508591
110	0x3df46c52	0.11934723
111	0x3e6a235c	0.22865051
112	0x3e86a353	0.26296481
113	0xbd2daa8d	-0.042398978
114	0x3dd58431	0.10425604
115	0xbd3378da	-0.043816425
116	0x3b937c01	0.0045008664
117	0x3e1d14b6	0.15339932
118	0x3e876729	0.26445892
119	0x3e510be1	0.20414688
120	0x3c85c910	0.016331226
121	0x3dcf89e8	0.101337254
122	0x3e82f6f9	0.2557905
123	0x3d6dc368	0.058047682
124	0xbdc683b8	-0.09693092
125	0x3e6a6aac	0.22892255
126	0x3e8cedd6	0.27525204
127	0xbbc37c32	-0.005965733
128	0x3e565963	0.20932536
129	0x3e095174	0.13409978
130	0x3e469fc2	0.1939688
131	0x3e9a3ac4	0.3012296
132	0x3de68eed	0.1125773
133	0x3de9da48	0.11418587
134	0x3e8494de	0.25894827
135	0x3e94484c	0.28961408
136	0x3e9d8bb7	0.30770656
137	0x3e89d608	0.26921105
138	0xbd88804f	-0.06665098
139	0xbdda562d	-0.10660968
140	0x3de9966e	0.11405645
141	0xbc9f48d5	-0.019443909
142	0xbe09c41c	-0.13453716
143	0xbe1e631b	-0.15467493
144	0x3d1de0c0	0.038544416
145	0x3e3fbc7a	0.18724242
146	0xbd82ab5f	-0.06380343
147	0xbe4705de	-0.19435832
148	0xbe4e6a50	-0.20157743
149	0xbba02550	-0.0048872605
150	0xbddab462	-0.106789365
151	0xbe959b54	-0.29220068
152	0xbd9d4945	-0.07679991
153	0x3e459a77	0.19297205
154	0x3e8c6c4e	0.2742638
155	0x3d734d35	0.059399802
156	0x3b3ccc21	0.0028808194
157	0xbd72ceae	-0.059279136
158	0xbd7d53f6	-0.06184765
159	0xbe496977	-0.19669138
160	0xbe12b290	-0.14325929
161	0xbdcd4382	-0.10022642
162	0xbe827c2d	-0.25485364
163	0xbe093806	-0.13400277
164	0xbd8f3697	-0.06992834
165	0xbe67529c	-0.22590107
166	0x3c933b50	0.017972618
167	0xbdb16ebe	-0.086637005
168	0xbe3cda67	-0.18442689
169	0xbe0c55f1	-0.13704659
170	0xbdbb0a42	-0.09132816
171	0xbe025783	-0.12728696
172	0xbe06287c	-0.13101381
173	0xbe427688	-0.18990529
174	0xbe17d7aa	-0.14828363
175	0xbd1a9b04	-0.03774549
176	0xbe06cf13	-0.1316493
177	0xbcdf2223	-0.027237957
178	0xbe9bfb70	-0.3046527
179	0xbc83a369	-0.016069131
180	0xbe25c67e	-0.16189
181	0x3d8f4672	0.06995858
182	0x3dc0c98a	0.094134405
183	0xbe4a79b9	-0.19772996
184	0xbd40ac3a	-0.047039248
185	0x3c3f1050	0.011661604
186	0xbdcad232	-0.09903373
187	0xbeafa2e5	-0.34303966
188	0xbe953b2e	-0.29146713
189	0x3e8cf8b1	0.27533486
190	0xbca6f1af	-0.020378916
191	0x3e1b17e7	0.15145837
192	0x3eac38b2	0.33637005
193	0x3da052ed	0.07828317
194	0x3e071043	0.13189797
195	0x3ebb2a35	0.3655564
196	0x3e3215ff	0.17391203
197	0x3e51382b	0.20431583
198	0xbda29973	-0.07939424
199	0x3daf8637	0.08570521
200	0x3e2a4f49	0.16631807
201	0xbcdab794	-0.026698865
202	0x3e87451e	0.2641992
203	0x3cb35e0a	0.021895427
204	0x3e921c61	0.28537276
205	0xbcf1d455	-0.029520193
206	0x3dbfa5e0	0.0935781
207	0x3dfd0d2b	0.12356027
208	0x3e769c94	0.24083167
209	0x3e4dc9b6	0.20096478
210	0x3d8d352b	0.068949066
211	0x3e93a926	0.28839988
212	0xbcaaf5f8	-0.02086924
213	0x3cb6e246	0.022324692
214	0x3eaabab6	0.33345574
215	0x3ea12343	0.31472215
216	0x3cc73e91	0.024321826
217	0xbc6d4b2d	-0.014483255
218	0x3d0ef3c9	0.03490046
219	0xbe0467d4	-0.12930232
220	0xbd9361fe	-0.07196425
221	0x3e123c44	0.14280802
222	0x3db67e42	0.089108005
223	0x3e632e77	0.22185694
224	0x3e165c0b	0.14683549
225	0xbe09cd3f	-0.13457201
226	0xbd63a902	-0.0555811
227	0x3dbb5dec	0.091487736
228	0xbe014a03	-0.1262589
229	0x3dea36f3	0.11436262
230	0x3d4967a0	0.04917109
231	0x3d367081	0.044540886
232	0x3e874629	0.26420715
233	0x3e8089dc	0.25105178
234	0xbd8bd5db	-0.06827899
235	0xbe8cac05	-0.2747499
236	0x3d7c1559	0.061543796
237	0xbe625060	-0.22100973
238	0xbe438422	-0.19093373
239	0xbdb05673	-0.08610239
240	0xbd497504	-0.04918386
241	0xbe5b0860	-0.21389914
242	0xbc04bb0f	-0.008101239
243	0x3debdcf3	0.11516752
244	0xbe32b9fe	-0.17453763
245	0x3d22cafc	0.039744362
246	0x3e30a901	0.1725197
247	0xbc47d83c	-0.01219755
248	0x3e7ec620	0.24880266
249	0x3d89e39e	0.06732868
250	0x3deb8509	0.11499984
251	0x3e3e9abc	0.18613714
252	0x3db24397	0.08704298
253	0xbd70df80	-0.058806896
254	0xbe12fae9	-0.14353527
255	0xbdc0714c	-0.0939661

model_12/conv2d_56/Conv2D_bias f4 [16]
0	0xbd1d818c	-0.038453624
1	0x3e02544a	0.12727466
2	0x3d3a2cb4	0.04545279
3	0x3db8e65d	0.09028313
4	0xbd220ce3	-0.03956307
5	0x3e581f0f	0.21105598
6	0x3d64f0ab	0.05589358
7	0xbd5ad21e	-0.05342304
8	0x3de1ab1a	0.11018963
9	0x3dadf4b7	0.08493941
10	0x3da4c580	0.08045483
11	0xbb5c33f4	-0.0033600302
12	0xbc0bd0df	-0.0085336855
13	0x3cb238a3	0.021755522
14	0x3d3b36f8	0.04570672
15	0x3e1cc873	0.1531084

model_12/conv2d_57/Conv2D/ReadVariableOp i1 [32, 3, 3, 16] scale=0.0042044236 zero_point=0
0	0x20	0.13454156
1	0xfc	-0.016817695
2	0xea	-0.09249732
3	0xf2	-0.05886193
4	0x09	0.03783981
5	0x48	0.3027185
6	0xec	-0.084088475
7	0xfc	-0.016817695
8	0xdb	-0.15556367
9	0xe4	-0.11772386
10	0xe4	-0.11772386
11	0xee	-0.07567962
12	0xef	-0.0714752
13	0x19	0.10511059
14	0x04	0.016817695
15	0x5f	0.39942023
16	0xee	-0.07567962
17	0xfe	-0.008408847
18	0x12	0.07567962
19	0xf7	-0.03783981
20	0x07	0.029430965
21	0x06	0.02522654
22	0x0b	0.04624866
23	0xe1	-0.13033713
24	0xd0	-0.20181233
25	0xd1	-0.1976079
26	0xe6	-0.109315015
27	0xe3	-0.12192828
28	0xf2	-0.05886193
29	0xe3	-0.12192828
30	0x09	0.03783981
31	0x34	0.21863003
32	0xf3	-0.054657508
33	0x09	0.03783981
34	0x19	0.10511059
35	0x15	0.0882929
36	0x09	0.03783981
37	0x2b	0.18079022
38	0x0f	0.063066356
39	0x0a	0.042044237
40	0xf6	-0.042044237
41	0xf1	-0.063066356
42	0xe4	-0.11772386
43	0xe6	-0.109315015
44	0xfc	-0.016817695
45	0xe7	-0.10511059
46	0xfc	-0.016817695
47	0x4c	0.3195362
48	0x08	0.03363539
49	0x2d	0.18919906
50	0x0f	0.063066356
51	0xc2	-0.26067427
52	0xf2	-0.05886193
53	0x21	0.13874598
54	0x1d	0.12192828
55	0xf0	-0.06727078
56	0x03	0.01261327
57	0xe2	-0.12613271
58	0xdc	-0.15135925
59	0x05	0.021022119
60	0xdc	-0.15135925
61	0xf5	-0.04624866
62	0x0f	0.063066356
63	0x2d	0.18919906
64	0xdd	-0.14715482
65	0x24	0.15135925
66	0x1f	0.13033713
67	0xf4	-0.05045308
68	0xe2	-0.12613271
69	0xff	-0.0042044236
70	0xfc	-0.016817695
71	0xfc	-0.016817695
72	0xfa	-0.02522654
73	0x1a	0.109315015
74	0x12	0.07567962
75	0xde	-0.1429504
76	0xcf	-0.20601676
77	0x00	0.0
78	0x1e	0.12613271
79	0xf7	-0.03783981
80	0xf2	-0.05886193
81	0x20	0.13454156
82	0x11	0.0714752
83	0xf2	-0.05886193
84	0xf3	-0.054657508
85	0x48	0.3027185
86	0xf3	-0.054657508
87	0x07	0.029430965
88	0x1f	0.13033713
89	0xfe	-0.008408847
90	0xfb	-0.021022119
91	0xe6	-0.109315015
92	0xe2	-0.12613271
93	0x0c	0.05045308
94	0x0c	0.05045308
95	0x46	0.29430965
96	0xef	-0.0714752
97	0x27	0.16397253
98	0x03	0.01261327
99	0xe3	-0.12192828
100	0xfc	-0.016817695
101	0x57	0.36578485
102	0x0c	0.05045308
103	0xfc	-0.016817695
104	0x17	0.09670174
105	0xef	-0.0714752
106	0xe1	-0.13033713
107	0xf0	-0.06727078
108	0xef	-0.0714752
109	0xcf	-0.20601676
110	0x1d	0.12192828
111	0x31	0.20601676
112	0xf1	-0.063066356
113	0x44	0.2859008
114	0x3b	0.248061
115	0xe9	-0.09670174
116	0xec	-0.084088475
117	0x16	0.09249732
118	0x1e	0.12613271
119	0xe0	-0.13454156
120	0x23	0.14715482
121	0xf3	-0.054657508
122	0x06	0.02522654
123	0xf9	-0.029430965
124	0xd8	-0.16817695
125	0xfe	-0.008408847
126	0x1b	0.11351944
127	0xfc	-0.016817695
128	0x08	0.03363539
129	0x6f	0.46669102
130	0x20	0.13454156
131	0xf1	-0.063066356
132	0xee	-0.07567962
133	0x16	0.09249732
134	0x2b	0.18079022
135	0xee	-0.07567962
136	0x0c	0.05045308
137	0xe6	-0.109315015
138	0xd9	-0.16397253
139	0xd8	-0.16817695
140	0x02	0.008408847
141	0xe8	-0.10090616
142	0x3f	0.2648787
143	0x27	0.16397253
144	0x0b	0.04624866
145	0xc0	-0.2690831
146	0x01	0.0042044236
147	0xe5	-0.11351944
148	0x0b	0.04624866
149	0x3e	0.26067427
150	0xec	-0.084088475
151	0xef	-0.0714752
152	0xee	-0.07567962
153	0xf0	-0.06727078
154	0x04	0.016817695
155	0x03	0.01261327
156	0x1f	0.13033713
157	0xea	-0.09249732
158	0x15	0.0882929
159	0x30	0.20181233
160	0xe5	-0.11351944
161	0xb1	-0.33214948
162	0x16	0.09249732
163	0x0d	0.054657508
164	0xec	-0.084088475
165	0xea	-0.09249732
166	0x1c	0.11772386
167	0x14	0.084088475
168	0xdc	-0.15135925
169	0x05	0.021022119
170	0xfd	-0.01261327
171	0xff	-0.0042044236
172	0xf1	-0.063066356
173	0xf6	-0.042044237
174	0xf9	-0.029430965
175	0x10	0.06727078
176	0xf0	-0.06727078
177	0x11	0.0714752
178	0x07	0.029430965
179	0xe9	-0.09670174
180	0x07	0.029430965
181	0x49	0.3069229
182	0x02	0.008408847
183	0xf8	-0.03363539
184	0x08	0.03363539
185	0x14	0.084088475
186	0x16	0.09249732
187	0xfb	-0.021022119
188	0x09	0.03783981
189	0x13	0.07988405
190	0xf6	-0.042044237
191	0x2b	0.18079022
192	0x1e	0.12613271
193	0xce	-0.21022119
194	0xfb	-0.021022119
195	0x0f	0.063066356
196	0x14	0.084088475
197	0x19	0.10511059
198	0x09	0.03783981
199	0x1a	0.109315015
200	0x0c	0.05045308
201	0xee	-0.07567962
202	0xef	-0.0714752
203	0xf7	-0.03783981
204	0xf1	-0.063066356
205	0x09	0.03783981
206	0xf6	-0.042044237
207	0xf9	-0.029430965
208	0xf2	-0.05886193
209	0xec	-0.084088475
210	0xfa	-0.02522654
211	0x17	0.09670174
212	0x19	0.10511059
213	0x2c	0.18499464
214	0x0e	0.05886193
215	0x07	0.029430965
216	0xea	-0.09249732
217	0x25	0.15556367
218	0x11	0.0714752
219	0xfb	-0.021022119
220	0xfe	-0.008408847
221	0xf0	-0.06727078
222	0x08	0.03363539
223	0xec	-0.084088475
224	0x01	0.0042044236
225	0x05	0.021022119
226	0x03	0.01261327
227	0x10	0.06727078
228	0x15	0.0882929
229	0x2a	0.1765858
230	0x0b	0.04624866
231	0xe8	-0.10090616
232	0xf9	-0.029430965
233	0xf2	-0.05886193
234	0xe3	-0.12192828
235	0xe4	-0.11772386
236	0xef	-0.0714752
237	0x00	0.0
238	0xfb	-0.021022119
239	0x29	0.17238137
240	0x17	0.09670174
241	0x42	0.27749196
242	0x0c	0.05045308
243	0x1b	0.11351944
244	0x08	0.03363539
245	0x38	0.23544772
246	0xfc	-0.016817695
247	0xf3	-0.054657508
248	0x2d	0.18919906
249	0xff	-0.0042044236
250	0xed	-0.07988405
251	0x08	0.03363539
252	0x05	0.021022119
253	0x14	0.084088475
254	0xf4	-0.05045308
255	0x01	0.0042044236

model_12/conv2d_57/Conv2D_bias f4 [32]
0	0x3cc5e7a3	0.024158305
1	0x3c794d80	0.015216231
2	0xbce9362e	-0.028468218
3	0x3c71e8c2	0.014764966
4	0xbbfb0952	-0.007661023
5	0x3be48cab	0.0069747767
6	0x3d1f1874	0.03884168
7	0xbbb64040	-0.0055618584
8	0x3d127205	0.03575327
9	0x3c7e740a	0.015530596
10	0x3ca0c254	0.019623913
11	0x3d711f89	0.058867965
12	0x3c19a3ed	0.009377462
13	0x3b593d26	0.003314802
14	0x3d0bbd9d	0.034116376
15	0x3c83c12d	0.016083324
16	0xbc9b0daf	-0.018927423
17	0xbc357bca	-0.011076877
18	0xbcc59c4a	-0.024122376
19	0x3c54c02c	0.0129852705
20	0x3c78cc38	0.015185408
21	0x3c9e4b3b	0.019322982
22	0xbb50affc	-0.0031843176
23	0x3c4a24a9	0.012337842
24	0x3d66669c	0.0562502
25	0xbb919cb4	-0.0044437293
26	0x3b2c3a2e	0.0026279795
27	0x3b31f760	0.0027155504
28	0x3d0a2285	0.033724327
29	0x3bccae80	0.006246388
30	0xbc800424	-0.015626974
31	0x3d176041	0.03695703

model_12/dense_60/MatMul/ReadVariableOp/transpose i1 [128, 256] scale=0.0037234954 zero_point=0
0	0xe9	-0.08564039
1	0x16	0.0819169
2	0xe1	-0.11542836
3	0xf2	-0.052128937
4	0x19	0.09308738
5	0x44	0.2531977
6	0xd9	-0.14521632
7	0x15	0.078193404
8	0x18	0.08936389
9	0x23	0.13032234
10	0xd8	-0.14893982
11	0xf0	-0.059575927
12	0xf3	-0.04840544
13	0xf9	-0.026064469
14	0x26	0.14149283
15	0xfb	-0.018617477
16	0xde	-0.12659885
17	0x1b	0.10053438
18	0xe4	-0.104257874
19	0xf3	-0.04840544
20	0xec	-0.07446991
21	0xfa	-0.022340972
22	0x05	0.018617477
23	0xbb	-0.25692117
24	0x1c	0.104257874
25	0x18	0.08936389
26	0xf2	-0.052128937
27	0xfa	-0.022340972
28	0xf5	-0.04095845
29	0x0b	0.04095845
30	0x15	0.078193404
31	0x0b	0.04095845
32	0x1f	0.11542836
33	0xe3	-0.10798137
34	0x12	0.06702292
35	0x0c	0.044681944
36	0x0c	0.044681944
37	0xe5	-0.10053438
38	0x1e	0.11170486
39	0xe5	-0.10053438
40	0x12	0.06702292
41	0x10	0.059575927
42	0xf1	-0.05585243
43	0x1e	0.11170486
44	0xf6	-0.037234955
45	0xfb	-0.018617477
46	0xed	-0.070746414
47	0xf4	-0.044681944
48	0xe7	-0.09308738
49	0x17	0.08564039
50	0xd9	-0.14521632
51	0xe7	-0.09308738
52	0xe4	-0.104257874
53	0xf3	-0.04840544
54	0x35	0.19734526
55	0xee	-0.06702292
56	0xe9	-0.08564039
57	0xf8	-0.029787963
58	0x16	0.0819169
59	0xf5	-0.04095845
60	0x27	0.14521632
61	0xd0	-0.17872778
62	0xde	-0.12659885
63	0xea	-0.0819169
64	0xec	-0.07446991
65	0x12	0.06702292
66	0xf5	-0.04095845
67	0x05	0.018617477
68	0xe6	-0.09681088
69	0xfb	-0.018617477
70	0xe8	-0.08936389
71	0xfa	-0.022340972
72	0x1d	0.10798137
73	0xf2	-0.052128937
74	0x19	0.09308738
75	0x20	0.11915185
76	0xfe	-0.007446991
77	0xfd	-0.011170486
78	0xf4	-0.044681944
79	0xff	-0.0037234954
80	0xe8	-0.08936389
81	0xfc	-0.014893982
82	0x0f	0.05585243
83	0x18	0.08936389
84	0xdb	-0.13776933
85	0xf0	-0.059575927
86	0x34	0.19362175
87	0x07	0.026064469
88	0xe6	-0.09681088
89	0xf4	-0.044681944
90	0x18	0.08936389
91	0xf1	-0.05585243
92	0x20	0.11915185
93	0xe5	-0.10053438
94	0x1c	0.104257874
95	0x15	0.078193404
96	0x1d	0.10798137
97	0x22	0.12659885
98	0x16	0.0819169
99	0xfe	-0.007446991
100	0x1a	0.09681088
101	0x38	0.20851575
102	0xd9	-0.14521632
103	0xf3	-0.04840544
104	0xf6	-0.037234955
105	0x21	0.12287535
106	0x14	0.07446991
107	0xee	-0.06702292
108	0x1f	0.11542836
109	0x13	0.070746414
110	0x16	0.0819169
111	0x22	0.12659885
112	0x06	0.022340972
113	0xda	-0.14149283
114	0xf8	-0.029787963
115	0xf0	-0.059575927
116	0x07	0.026064469
117	0xe8	-0.08936389
118	0xf7	-0.03351146
119	0xfa	-0.022340972
120	0x30	0.17872778
121	0x1d	0.10798137
122	0x1b	0.10053438
123	0x0e	0.052128937
124	0x09	0.03351146
125	0xf0	-0.059575927
126	0x20	0.11915185
127	0x0d	0.04840544
128	0x1b	0.10053438
129	0xe9	-0.08564039
130	0x00	0.0
131	0x28	0.14893982
132	0xfd	-0.011170486
133	0x21	0.12287535
134	0xdc	-0.13404584
135	0xf7	-0.03351146
136	0xef	-0.063299425
137	0xfa	-0.022340972
138	0xbd	-0.2494742
139	0x23	0.13032234
140	0x00	0.0
141	0x10	0.059575927
142	0xfe	-0.007446991
143	0xd1	-0.17500429
144	0xe0	-0.11915185
145	0xd2	-0.17128079
146	0xfc	-0.014893982
147	0x2a	0.15638681
148	0xdb	-0.13776933
149	0x02	0.007446991
150	0x03	0.011170486
151	0xdb	-0.13776933
152	0x2e	0.17128079
153	0xf6	-0.037234955
154	0x11	0.063299425
155	0xf1	-0.05585243
156	0x2e	0.17128079
157	0xd9	-0.14521632
158	0xf2	-0.052128937
159	0x33	0.18989827
160	0x24	0.13404584
161	0x14	0.07446991
162	0xf6	-0.037234955
163	0x05	0.018617477
164	0x01	0.0037234954
165	0xf6	-0.037234955
166	0x15	0.078193404
167	0xe9	-0.08564039
168	0x1d	0.10798137
169	0x24	0.13404584
170	0xb1	-0.29415613
171	0xe8	-0.08936389
172	0x19	0.09308738
173	0xfc	-0.014893982
174	0x2b	0.16011031
175	0xff	-0.0037234954
176	0x0c	0.044681944
177	0xdb	-0.13776933
178	0xfd	-0.011170486
179	0xe8	-0.08936389
180	0xe4	-0.104257874
181	0xf9	-0.026064469
182	0xee	-0.06702292
183	0xf9	-0.026064469
184	0xfc	-0.014893982
185	0xcf	-0.18245128
186	0x1f	0.11542836
187	0x0e	0.052128937
188	0x17	0.08564039
189	0xf1	-0.05585243
190	0xf0	-0.059575927
191	0xfa	-0.022340972
192	0x07	0.026064469
193	0xe3	-0.10798137
194	0xfd	-0.011170486
195	0xea	-0.0819169
196	0x17	0.08564039
197	0xef	-0.063299425
198	0x23	0.13032234
199	0x0c	0.044681944
200	0x2b	0.16011031
201	0x13	0.070746414
202	0x14	0.07446991
203	0x3e	0.23085672
204	0xfb	-0.018617477
205	0x0f	0.05585243
206	0xfe	-0.007446991
207	0xec	-0.07446991
208	0xfe	-0.007446991
209	0x0c	0.044681944
210	0xdd	-0.13032234
211	0x1e	0.11170486
212	0xe2	-0.11170486
213	0xfc	-0.014893982
214	0x32	0.18617477
215	0x18	0.08936389
216	0xf7	-0.03351146
217	0x14	0.07446991
218	0xf1	-0.05585243
219	0x18	0.08936389
220	0x29	0.1526633
221	0x0d	0.04840544
222	0xe8	-0.08936389
223	0x1f	0.11542836
224	0x0d	0.04840544
225	0xf5	-0.04095845
226	0xea	-0.0819169
227	0x20	0.11915185
228	0x1d	0.10798137
229	0xe3	-0.10798137
230	0x19	0.09308738
231	0x10	0.059575927
232	0x28	0.14893982
233	0x19	0.09308738
234	0xfa	-0.022340972
235	0xfa	-0.022340972
236	0x21	0.12287535
237	0x10	0.059575927
238	0x1a	0.09681088
239	0xf2	-0.052128937
240	0xf7	-0.03351146
241	0xe3	-0.10798137
242	0xec	-0.07446991
243	0x15	0.078193404
244	0x11	0.063299425
245	0x0a	0.037234955
246	0x1f	0.11542836
247	0x15	0.078193404
248	0xdf	-0.12287535
249	0x11	0.063299425
250	0x1a	0.09681088
251	0x0c	0.044681944
252	0x05	0.018617477
253	0xfe	-0.007446991
254	0xdd	-0.13032234
255	0xe3	-0.10798137

model_12/dense_60/MatMul_bias f4 [128]
0	0x3af7ebf2	0.0018914922
1	0xbb31fd95	-0.0027159203
2	0x3bc57e89	0.006027047
3	0x3c523ce1	0.0128318975
4	0xbbe1d0fa	-0.006891367
5	0xbc44b735	-0.012006571
6	0xbcf028bb	-0.029316297
7	0x3c552ea2	0.013011606
8	0xbc1dd9f9	-0.009634488
9	0x3c81e2bc	0.015855186
10	0xbc404f73	-0.011737692
11	0xbbfabb0c	-0.0076516923
12	0xbcbdc3a6	-0.023164582
13	0x3c8e134b	0.017343184
14	0x3b7f29e5	0.0038934883
15	0xbc1abe5f	-0.009444802
16	0x3c44ff41	0.012023748
17	0x3c37655d	0.0111936005
18	0x3c10c8f0	0.00883697
19	0x3c85c6bb	0.016330114
20	0xb94fc040	-0.00019812677
21	0x3cfe5202	0.031044964
22	0x3c357770	0.011075839
23	0x3c957648	0.018244877
24	0x3b8c2134	0.004276419
25	0x3c6fd695	0.014638563
26	0xbcee30cb	-0.029076
27	0x3c865855	0.016399542
28	0xbb877e83	-0.0041349544
29	0x3c96be87	0.018401397
30	0x3cdc3f1f	0.026885567
31	0x3bbf9687	0.0058468017
32	0x3cca7fdb	0.02471917
33	0xbca49146	-0.020088803
34	0x3c942cda	0.018087793
35	0x395c6818	0.00021019613
36	0x3b621877	0.0034499445
37	0xbad5a07a	-0.0016298436
38	0x3ab27ce0	0.0013617538
39	0xbbd69834	-0.0065489057
40	0x3b8fdb51	0.004390158
41	0xbaace114	-0.0013189637
42	0xb9f6ca78	-0.00047071627
43	0x3c5c1557	0.013432822
44	0x3cd9a83d	0.02656948
45	0xbc294adf	-0.010332792
46	0x3c6d01d6	0.01446577
47	0xbd0f2bf3	-0.034954023
48	0x3ba1947e	0.0049310317
49	0xba83f8f2	-0.0010068698
50	0x3c88bd31	0.016691776
51	0xb92f13c0	-0.00016696658
52	0x3c5794d5	0.013158043
53	0x3c8c39d1	0.017117413
54	0x3c9fecf6	0.019522171
55	0xbb840d84	-0.0040299315
56	0x3c604240	0.01368767
57	0xbd0f4758	-0.034980148
58	0x3bece452	0.0072293663
59	0x3c635513	0.013875264
60	0xbcd62044	-0.026138432
61	0xbbebce22	-0.007196204
62	0x3cd8994c	0.026440285
63	0x3c577959	0.01315149
64	0xbc825764	-0.015910812
65	0xbb8ef1d0	-0.0043623224
66	0x3abe3016	0.001451018
67	0xbc7b5ec4	-0.015342418
68	0x3c9bd16f	0.019020764
69	0x3cd679db	0.026181152
70	0x3d04841f	0.032352563
71	0x3c22c87e	0.009935496
72	0xbc305775	-0.010763039
73	0x3b747bb2	0.0037305173
74	0xbbe7b5a4	-0.007071214
75	0xbc9b0cee	-0.018927064
76	0xbc2c8d6d	-0.010531765
77	0x3becb1d7	0.0072233486
78	0x3d252345	0.04031684
79	0x3d06cc3e	0.032909624
80	0xbbcfd032	-0.0063419575
81	0x3b8db924	0.004325049
82	0xbbc63340	-0.00604859
83	0x3d116b0e	0.035502486
84	0xbc712504	-0.014718298
85	0xbc2179d1	-0.009855703
86	0x3c9bd284	0.01902128
87	0xbc5da60b	-0.013528357
88	0x3c21468f	0.009843483
89	0xbc2bd650	-0.010488108
90	0x3cc2cec4	0.023780234
91	0x3c0574e6	0.008145547
92	0x3c5a4a42	0.0133233685
93	0x3b04755c	0.0020211553
94	0x3c34a92e	0.011026664
95	0x3b05da1f	0.00204242
96	0x3b001e67	0.0019549371
97	0x3c70f1d1	0.014706091
98	0x3c1459bb	0.009054597
99	0x3c7d0746	0.015443629
100	0x3c82f4c3	0.015985852
101	0xbc4b6cc4	-0.012416068
102	0xbc1e53ac	-0.009663504
103	0xbc5e33e8	-0.01356218
104	0xbca667bd	-0.020313138
105	0x3c122630	0.008920237
106	0xbb792a44	-0.0038019577
107	0xba419ab9	-0.0007385421
108	0x3caa5b09	0.020795362
109	0x3ca89a1d	0.0205813
110	0x3b91e97a	0.0044528814
111	0x3c8c5d1d	0.017134244
112	0x3ccf279b	0.02528744
113	0x3ce689c4	0.028141864
114	0xbc4cf065	-0.012508486
115	0x3b16cbf9	0.002300976
116	0x3c16de3b	0.009208257
117	0xbc2c630a	-0.01052166
118	0xbacc6408	-0.0015593776
119	0x3ba29793	0.0049619167
120	0xba2b542f	-0.00065356767
121	0xba0acc7e	-0.0005294754
122	0xb9facb3c	-0.00047835137
123	0xbc83e6b3	-0.016101217
124	0x3ab30439	0.0013657875
125	0x3c802ace	0.01564541
126	0x3c49cce2	0.012316914
127	0x3ca220bc	0.019791

model_12/dense_61/MatMul/ReadVariableOp/transpose i1 [64, 128] scale=0.0034999151 zero_point=0
0	0xe9	-0.08049805
1	0x2f	0.164496
2	0xf0	-0.055998642
3	0xd5	-0.15049635
4	0xd1	-0.164496
5	0x04	0.0139996605
6	0x1d	0.10149754
7	0xdd	-0.12249703
8	0x09	0.031499237
9	0x00	0.0
10	0x12	0.06299847
11	0x49	0.2554938
12	0xfb	-0.017499575
13	0x23	0.12249703
14	0x36	0.18899542
15	0x28	0.1399966
16	0xfb	-0.017499575
17	0x21	0.1154972
18	0xe8	-0.083997965
19	0xf5	-0.038499065
20	0xe4	-0.09799762
21	0xf6	-0.03499915
22	0xfd	-0.010499746
23	0x3b	0.20649499
24	0xe7	-0.087497875
25	0x1a	0.09099779
26	0x1d	0.10149754
27	0xe0	-0.111997284
28	0xf1	-0.052498728
29	0x11	0.059498556
30	0x50	0.2799932
31	0x39	0.19949517
32	0x23	0.12249703
33	0x0d	0.045498896
34	0x41	0.22749448
35	0x17	0.08049805
36	0xc4	-0.20999491
37	0x23	0.12249703
38	0x20	0.111997284
39	0xab	-0.29749277
40	0xc9	-0.19249533
41	0x14	0.0699983
42	0x22	0.11899711
43	0x0f	0.052498728
44	0x01	0.0034999151
45	0x13	0.066498384
46	0xf7	-0.031499237
47	0x07	0.024499405
48	0x1a	0.09099779
49	0x15	0.07349822
50	0xc8	-0.19599524
51	0xd9	-0.1364967
52	0xcc	-0.18199559
53	0x3b	0.20649499
54	0x19	0.087497875
55	0xc1	-0.22049466
56	0x14	0.0699983
57	0xdd	-0.12249703
58	0xe9	-0.08049805
59	0x26	0.13299677
60	0x0a	0.03499915
61	0x10	0.055998642
62	0xe6	-0.09099779
63	0xd9	-0.1364967
64	0xf0	-0.055998642
65	0x0e	0.04899881
66	0x21	0.1154972
67	0x26	0.13299677
68	0xf4	-0.041998982
69	0xe1	-0.10849737
70	0xeb	-0.07349822
71	0x23	0.12249703
72	0xeb	-0.07349822
73	0x2c	0.15399626
74	0xbd	-0.23449431
75	0xf1	-0.052498728
76	0x21	0.1154972
77	0xe0	-0.111997284
78	0x37	0.19249533
79	0x1c	0.09799762
80	0x02	0.0069998302
81	0xd5	-0.15049635
82	0xfc	-0.0139996605
83	0x0c	0.041998982
84	0x5d	0.3254921
85	0xe1	-0.10849737
86	0x06	0.020999491
87	0xdb	-0.12949686
88	0xf6	-0.03499915
89	0x16	0.07699813
90	0xf3	-0.045498896
91	0x2a	0.14699644
92	0x0a	0.03499915
93	0x32	0.17499575
94	0xe5	-0.09449771
95	0xdc	-0.12599695
96	0xd5	-0.15049635
97	0x25	0.12949686
98	0x1c	0.09799762
99	0xe9	-0.08049805
100	0x43	0.23449431
101	0xdd	-0.12249703
102	0xe8	-0.083997965
103	0x49	0.2554938
104	0xe8	-0.083997965
105	0x21	0.1154972
106	0xe7	-0.087497875
107	0x18	0.083997965
108	0xd5	-0.15049635
109	0xe0	-0.111997284
110	0xff	-0.0034999151
111	0xdc	-0.12599695
112	0x0c	0.041998982
113	0x02	0.0069998302
114	0x15	0.07349822
115	0xee	-0.06299847
116	0x21	0.1154972
117	0xef	-0.059498556
118	0x01	0.0034999151
119	0xd9	-0.1364967
120	0xe5	-0.09449771
121	0x2b	0.15049635
122	0xc3	-0.21349482
123	0xd3	-0.15749618
124	0x35	0.1854955
125	0x01	0.0034999151
126	0xd3	-0.15749618
127	0xc7	-0.19949517
128	0xef	-0.059498556
129	0x3c	0.20999491
130	0x10	0.055998642
131	0x52	0.28699303
132	0x32	0.17499575
133	0xe5	-0.09449771
134	0xc9	-0.19249533
135	0xca	-0.18899542
136	0xf5	-0.038499065
137	0x07	0.024499405
138	0x1d	0.10149754
139	0xbb	-0.24149415
140	0x40	0.22399457
141	0x2e	0.1609961
142	0x15	0.07349822
143	0xeb	-0.07349822
144	0x38	0.19599524
145	0x3e	0.21699473
146	0xef	-0.059498556
147	0xf9	-0.024499405
148	0x04	0.0139996605
149	0xfc	-0.0139996605
150	0x24	0.12599695
151	0x23	0.12249703
152	0xfa	-0.020999491
153	0xf7	-0.031499237
154	0x20	0.111997284
155	0xf9	-0.024499405
156	0xde	-0.11899711
157	0x1c	0.09799762
158	0x14	0.0699983
159	0xfc	-0.0139996605
160	0xfc	-0.0139996605
161	0x01	0.0034999151
162	0xea	-0.07699813
163	0x29	0.14349651
164	0xf7	-0.031499237
165	0x3f	0.22049466
166	0x0d	0.045498896
167	0x29	0.14349651
168	0xfc	-0.0139996605
169	0x38	0.19599524
170	0x10	0.055998642
171	0x08	0.027999321
172	0xbd	-0.23449431
173	0xe1	-0.10849737
174	0xdc	-0.12599695
175	0xd9	-0.1364967
176	0x34	0.18199559
177	0x1d	0.10149754
178	0xd0	-0.16799593
179	0xde	-0.11899711
180	0x25	0.12949686
181	0x51	0.28349313
182	0x0b	0.038499065
183	0x1f	0.10849737
184	0xfe	-0.0069998302
185	0xe4	-0.09799762
186	0x2c	0.15399626
187	0xd6	-0.14699644
188	0x01	0.0034999151
189	0xf8	-0.027999321
190	0x1c	0.09799762
191	0xe4	-0.09799762
192	0xe4	-0.09799762
193	0x1f	0.10849737
194	0xfe	-0.0069998302
195	0xf4	-0.041998982
196	0x07	0.024499405
197	0x1d	0.10149754
198	0x25	0.12949686
199	0x24	0.12599695
200	0xf9	-0.024499405
201	0xce	-0.17499575
202	0x26	0.13299677
203	0xef	-0.059498556
204	0xea	-0.07699813
205	0x11	0.059498556
206	0xf4	-0.041998982
207	0x34	0.18199559
208	0xd1	-0.164496
209	0xef	-0.059498556
210	0xe2	-0.104997456
211	0x47	0.24849397
212	0xdb	-0.12949686
213	0xe9	-0.08049805
214	0x05	0.017499575
215	0xe1	-0.10849737
216	0xfe	-0.0069998302
217	0xc3	-0.21349482
218	0x26	0.13299677
219	0x28	0.1399966
220	0x00	0.0
221	0x28	0.1399966
222	0xeb	-0.07349822
223	0x10	0.055998642
224	0x0e	0.04899881
225	0x26	0.13299677
226	0x1a	0.09099779
227	0xf3	-0.045498896
228	0x28	0.1399966
229	0xf2	-0.04899881
230	0x17	0.08049805
231	0xc3	-0.21349482
232	0xfe	-0.0069998302
233	0x1b	0.09449771
234	0xf0	-0.055998642
235	0x37	0.19249533
236	0xf7	-0.031499237
237	0x1c	0.09799762
238	0xe8	-0.083997965
239	0x16	0.07699813
240	0xdb	-0.12949686
241	0xf3	-0.045498896
242	0x15	0.07349822
243	0x22	0.11899711
244	0xdf	-0.1154972
245	0xfd	-0.010499746
246	0xec	-0.0699983
247	0xff	-0.0034999151
248	0xd6	-0.14699644
249	0x36	0.18899542
250	0xfe	-0.0069998302
251	0x25	0.12949686
252	0xf4	-0.041998982
253	0xde	-0.11899711
254	0x3d	0.21349482
255	0xe5	-0.09449771

model_12/dense_61/MatMul_bias f4 [64]
0	0xbadb21ae	-0.0016718411
1	0x3cfa5578	0.030558333
2	0x3ca6c6e5	0.020358512
3	0x3ca2c3fc	0.019868843
4	0x3ca44fbc	0.020057552
5	0x3cba6346	0.022752415
6	0x3bf950c5	0.0076085054
7	0xbb048df8	-0.0020226222
8	0xbc84d09f	-0.01621276
9	0xbb48c654	-0.003063579
10	0xbce26ed1	-0.027640732
11	0x3cd152de	0.02555221
12	0xbceb0e96	-0.028693479
13	0x3c347d87	0.011016256
14	0x3c60837e	0.013703225
15	0xbb9f342e	-0.004858515
16	0x3cf66038	0.030075178
17	0x3c1a8a10	0.009432331
18	0x3c50904c	0.012729716
19	0x3c0a3c6c	0.008437257
20	0xbc501bf7	-0.01270198
21	0xbcdd53d4	-0.027017511
22	0x3b42a466	0.002970004
23	0xbc46b4db	-0.01212808
24	0xbcce0a01	-0.025151255
25	0x3bde9c33	0.0067935227
26	0xbcd6423c	-0.02615463
27	0x3b978aaa	0.0046246843
28	0xbbe85228	-0.007089872
29	0x398e78a9	0.0002717425
30	0x3bdfb3f2	0.006826871
31	0x3d32b351	0.04362804
32	0xbc9f1c80	-0.01942277
33	0x3c51b768	0.012800075
34	0xbb526326	-0.0032102554
35	0xbcc8c3d9	-0.02450745
36	0x3d0f3a9c	0.034968004
37	0x3d00b5da	0.031423427
38	0xbd2b663f	-0.041845556
39	0xbbf61f3d	-0.007511048
40	0xbbdf3258	-0.0068114214
41	0xbc8ef166	-0.017449092
42	0x3bc8746e	0.006117395
43	0xbc8469f0	-0.016163796
44	0x3ad95b20	0.0016582943
45	0xbb6a66b8	-0.0035766792
46	0x3c77fa11	0.015135304
47	0x3c1af7b6	0.009458473
48	0x3b88151e	0.004152908
49	0x3b847477	0.004042204
50	0xbc44c4ea	-0.012009839
51	0x3c962bb2	0.018331382
52	0x3c935cb1	0.017988535
53	0x3b3f217d	0.0029164248
54	0xbc32ccbb	-0.010913069
55	0x3c818e3e	0.015814897
56	0x3b79cf75	0.0038118039
57	0x3c882a43	0.016621714
58	0x3c9c6787	0.019092334
59	0xbc1506cd	-0.00909586
60	0x3ca7750e	0.020441558
61	0x3c438b5b	0.01193508
62	0xbb474b96	-0.0030410043
63	0xbb8355a8	-0.0040080138

model_12/dense_62/MatMul/ReadVariableOp/transpose i1 [22, 64] scale=0.00409502 zero_point=0
0	0xf6	-0.040950198
1	0xfa	-0.024570119
2	0x26	0.15561076
3	0xe6	-0.10647051
4	0x12	0.07371035
5	0x22	0.13923067
6	0x1d	0.11875557
7	0xc7	-0.23341613
8	0xbf	-0.26617628
9	0xca	-0.22113107
10	0xc8	-0.2293211
11	0x05	0.020475099
12	0x01	0.00409502
13	0x2f	0.19246593
14	0xc7	-0.23341613
15	0x49	0.29893646
16	0x4b	0.3071265
17	0x23	0.14332569
18	0x1e	0.1228506
19	0x3c	0.2457012
20	0xfa	-0.024570119
21	0xd4	-0.18018088
22	0x54	0.34398165
23	0xfa	-0.024570119
24	0x19	0.10237549
25	0x2b	0.17608584
26	0x81	-0.5200675
27	0x3d	0.24979621
28	0x2b	0.17608584
29	0x2e	0.18837091
30	0xe9	-0.09418546
31	0xd7	-0.16789581
32	0xd2	-0.18837091
33	0x3a	0.23751114
34	0x1d	0.11875557
35	0xdd	-0.14332569
36	0xee	-0.07371035
37	0x2a	0.17199083
38	0xd1	-0.19246593
39	0xe3	-0.11875557
40	0xae	-0.33579162
41	0xb2	-0.31941155
42	0x23	0.14332569
43	0xeb	-0.08599541
44	0xf2	-0.057330277
45	0x47	0.2907464
46	0x31	0.20065597
47	0xf6	-0.040950198
48	0x07	0.028665138
49	0xf5	-0.04504522
50	0x04	0.01638008
51	0x1f	0.12694561
52	0x53	0.33988664
53	0xe2	-0.1228506
54	0xb9	-0.2907464
55	0xea	-0.09009044
56	0x9d	-0.40540695
57	0x3c	0.2457012
58	0xc1	-0.25798625
59	0xe1	-0.12694561
60	0x38	0.2293211
61	0x2d	0.1842759
62	0xf4	-0.049140237
63	0x18	0.098280475
64	0xe3	-0.11875557
65	0xfe	-0.00819004
66	0xed	-0.07780538
67	0xdb	-0.15151574
68	0x2c	0.18018088
69	0x39	0.23341613
70	0xa3	-0.38083684
71	0x3e	0.25389123
72	0x42	0.2702713
73	0x12	0.07371035
74	0xc0	-0.26208127
75	0x37	0.22522609
76	0x06	0.024570119
77	0xce	-0.20475098
78	0x31	0.20065597
79	0x29	0.16789581
80	0x0b	0.04504522
81	0x24	0.1474207
82	0xd1	-0.19246593
83	0x45	0.28255635
84	0x00	0.0
85	0x0c	0.049140237
86	0x2e	0.18837091
87	0xad	-0.33988664
88	0x20	0.13104063
89	0x02	0.00819004
90	0x9b	-0.413597
91	0x02	0.00819004
92	0xe1	-0.12694561
93	0xcc	-0.21294102
94	0x37	0.22522609
95	0xc9	-0.22522609
96	0x02	0.00819004
97	0xde	-0.13923067
98	0xd3	-0.1842759
99	0xda	-0.15561076
100	0x3f	0.25798625
101	0xe3	-0.11875557
102	0x31	0.20065597
103	0x3a	0.23751114
104	0xf2	-0.057330277
105	0xb1	-0.32350656
106	0x3b	0.24160616
107	0xe8	-0.098280475
108	0xd6	-0.17199083
109	0x31	0.20065597
110	0xea	-0.09009044
111	0xc3	-0.24979621
112	0x43	0.27436632
113	0x03	0.012285059
114	0x31	0.20065597
115	0xf1	-0.0614253
116	0xfa	-0.024570119
117	0x29	0.16789581
118	0xbc	-0.27846134
119	0xd2	-0.18837091
120	0xf8	-0.03276016
121	0x36	0.22113107
122	0x44	0.27846134
123	0x41	0.26617628
124	0xbb	-0.28255635
125	0x03	0.012285059
126	0xcc	-0.21294102
127	0xc0	-0.26208127
128	0xc4	-0.2457012
129	0x21	0.13513565
130	0xe1	-0.12694561
131	0x10	0.06552032
132	0x2e	0.18837091
133	0xf9	-0.028665138
134	0xa6	-0.3685518
135	0x02	0.00819004
136	0x0c	0.049140237
137	0xa5	-0.3726468
138	0x2a	0.17199083
139	0x41	0.26617628
140	0x0d	0.053235255
141	0xe9	-0.09418546
142	0xea	-0.09009044
143	0xf8	-0.03276016
144	0xd4	-0.18018088
145	0xe2	-0.1228506
146	0x18	0.098280475
147	0xfc	-0.01638008
148	0x40	0.26208127
149	0x12	0.07371035
150	0x0a	0.040950198
151	0x35	0.21703605
152	0x00	0.0
153	0x54	0.34398165
154	0x75	0.4791173
155	0x12	0.07371035
156	0x19	0.10237549
157	0x27	0.15970577
158	0xe4	-0.11466055
159	0xb6	-0.30303147
160	0x52	0.33579162
161	0xde	-0.13923067
162	0xbf	-0.26617628
163	0xd6	-0.17199083
164	0xc9	-0.22522609
165	0x52	0.33579162
166	0x08	0.03276016
167	0xc1	-0.25798625
168	0x1e	0.1228506
169	0xf3	-0.053235255
170	0xf4	-0.049140237
171	0xe4	-0.11466055
172	0x31	0.20065597
173	0x18	0.098280475
174	0x1b	0.110565536
175	0xf5	-0.04504522
176	0x23	0.14332569
177	0xde	-0.13923067
178	0xc3	-0.24979621
179	0x08	0.03276016
180	0x20	0.13104063
181	0xba	-0.28665137
182	0xc2	-0.25389123
183	0xda	-0.15561076
184	0x36	0.22113107
185	0xac	-0.34398165
186	0x40	0.26208127
187	0x0b	0.04504522
188	0x3d	0.24979621
189	0xde	-0.13923067
190	0x4f	0.32350656
191	0x0b	0.04504522
192	0xe9	-0.09418546
193	0x10	0.06552032
194	0xb5	-0.3071265
195	0xef	-0.069615334
196	0x1c	0.11466055
197	0x2b	0.17608584
198	0x01	0.00409502
199	0xb5	-0.3071265
200	0x4d	0.31531653
201	0x4b	0.3071265
202	0xed	-0.07780538
203	0xe2	-0.1228506
204	0x11	0.069615334
205	0x24	0.1474207
206	0x4b	0.3071265
207	0x02	0.00819004
208	0x17	0.09418546
209	0xd7	-0.16789581
210	0xdb	-0.15151574
211	0x03	0.012285059
212	0x00	0.0
213	0x3a	0.23751114
214	0xc1	-0.25798625
215	0x3e	0.25389123
216	0xcf	-0.20065597
217	0x34	0.21294102
218	0x04	0.01638008
219	0xe0	-0.13104063
220	0xfc	-0.01638008
221	0x22	0.13923067
222	0xc5	-0.24160616
223	0xf4	-0.049140237
224	0x40	0.26208127
225	0x07	0.028665138
226	0x25	0.15151574
227	0xbe	-0.2702713
228	0xf0	-0.06552032
229	0xe4	-0.11466055
230	0x3b	0.24160616
231	0xb4	-0.3112215
232	0xea	-0.09009044
233	0x14	0.081900395
234	0x2b	0.17608584
235	0xbb	-0.28255635
236	0xe2	-0.1228506
237	0x13	0.07780538
238	0xef	-0.069615334
239	0x4f	0.32350656
240	0xca	-0.22113107
241	0x3d	0.24979621
242	0x29	0.16789581
243	0x41	0.26617628
244	0x01	0.00409502
245	0x3e	0.25389123
246	0xbf	-0.26617628
247	0xf6	-0.040950198
248	0xb0	-0.32760158
249	0xd3	-0.1842759
250	0x10	0.06552032
251	0x24	0.1474207
252	0xef	-0.069615334
253	0xe7	-0.10237549
254	0xd3	-0.1842759
255	0x41	0.26617628

model_12/dense_62/MatMul_bias f4 [22]
0	0x3d13b365	0.036059756
1	0x3c271689	0.010198244
2	0xbbdd2d17	-0.00674976
3	0xba5925d8	-0.0008283532
4	0x3bfb64c7	0.0076719257
5	0x3b70ffee	0.003677364
6	0x3c484a2b	0.012224714
7	0xbc79d002	-0.015247347
8	0x3c1b1bee	0.009467108
9	0x3acdc5fa	0.001569926
10	0xbcd34b65	-0.025792787
11	0xbad573ab	-0.0016285082
12	0xbceae163	-0.028671926
13	0xbb529312	-0.0032131118
14	0x3c2ed646	0.010671204
15	0x3d2517cf	0.04030591
16	0x3cc550a1	0.024086298
17	0x3c9cd571	0.019144746
18	0x3cdc8ba8	0.026922062
19	0xbc28372f	-0.010267063
20	0x3beaeedf	0.007169589
21	0xbcb051b4	-0.021523334

model_12/dense_63/MatMul/ReadVariableOp/transpose f4 [2, 22]
0	0xbe82c656	-0.25541943
1	0x3ee7ff47	0.4531195
2	0xbebe25b1	-0.3713813
3	0x3ca8b26e	0.020592894
4	0xbe6218ea	-0.22079816
5	0x3ed7a7d2	0.42120224
6	0xbdbc1482	-0.09183599
7	0xbf0c5671	-0.548194
8	0xbd6bc261	-0.05755842
9	0xbe8a2e16	-0.26988286
10	0xbd29cc23	-0.041454446
11	0x3e894462	0.26809984
12	0x3ed5942d	0.41714612
13	0xbea6c36d	-0.32570973
14	0x3ddf2848	0.10896355
15	0x3e44003a	0.19140711
16	0x3eb38dfb	0.3506926
17	0x3e5cd8a3	0.21567015
18	0x3efcc612	0.49369866
19	0x3e87e94b	0.26545176
20	0xbe9487c5	-0.29009834
21	0xbde8e381	-0.11371518
22	0x3ef7444c	0.48294294
23	0x3e8dbc85	0.2768289
24	0x3ea14c13	0.31503353
25	0xbee99215	-0.45619264
26	0x3e16e39b	0.14735262
27	0xbdb442ac	-0.08801779
28	0x3e640c67	0.22270356
29	0x3f13c1ed	0.5771778
30	0xbb76893a	-0.0037618414
31	0x3e8ba1f7	0.27272007
32	0x3ed5960d	0.41716042
33	0xbefaf012	-0.49011284
34	0x3eed0bb7	0.46298
35	0xbe5a8c94	-0.21342689
36	0x3e15bf21	0.14623691
37	0xbe402192	-0.18762806
38	0x3f05068c	0.51963115
39	0x3dee1ef1	0.11626995
40	0x3dc54a7b	0.09633347
41	0xbea8e13d	-0.32984343
42	0x3f14a69d	0.5806673
43	0x3ee197a0	0.44060993

model_12/dense_63/MatMul_bias f4 [2]
0	0x3c1c4009	0.009536752
1	0xbc1c4229	-0.009537258

model_12/dense_64/MatMul/ReadVariableOp/transpose f4 [10, 22]
0	0x3ced56ee	0.028972115
1	0x3e9f1b95	0.3107573
2	0x3ea9be94	0.33153212
3	0x3f3491ee	0.7053517
4	0x3f109290	0.56473637
5	0xbe9fbb1a	-0.31197435
6	0xbd59b083	-0.05314685
7	0x3e4b7690	0.19869447
8	0xbeb621d2	-0.35572678
9	0x3ebf9962	0.3742171
10	0x3ca74bfa	0.02042197
11	0x3e9bd140	0.30433083
12	0x3e781661	0.24227287
13	0x3e190594	0.14943534
14	0xbc242323	-0.010018143
15	0x3eb1d629	0.34733704
16	0x3ed27604	0.41105664
17	0xbea483be	-0.3213176
18	0x3e9525c9	0.2913039
19	0xbeae6c00	-0.34066772
20	0xbe0a03a3	-0.1347795
21	0x3ea3638d	0.3191189
22	0x3f1d464a	0.6143538
23	0xbe42b291	-0.1901343
24	0x3ee1e41b	0.44119343
25	0x3f11ea21	0.5699788
26	0xbda89032	-0.08230628
27	0xbf1531ff	-0.58279413
28	0xbf00532b	-0.50126904
29	0xbd4ff436	-0.050770007
30	0x3e92fce3	0.28708562
31	0xbdf8b9f1	-0.121448405
32	0x3f051be8	0.51995707
33	0xbe4f8a5e	-0.20267627
34	0xbe282ef3	-0.1642416
35	0xbe279100	-0.16363907
36	0x3e5b326d	0.21405955
37	0xbd524e93	-0.051344465
38	0x3d65b66e	0.05608218
39	0x3eea4323	0.45754346
40	0x3d0b93ec	0.034076616
41	0x3e9c612a	0.3054288
42	0xbe448597	-0.19191585
43	0xbe53cdf5	-0.20684035
44	0x3e87fdf2	0.26560932
45	0x3e4dac22	0.20085195
46	0x3cdc3e4b	0.026885172
47	0xbf1393da	-0.5764748
48	0xbea3af66	-0.31969756
49	0x3f15532d	0.5833004
50	0x3e835378	0.2564962
51	0xbecf3567	-0.4047043
52	0x3edb8c82	0.42880636
53	0x3c36f2ba	0.011166269
54	0xbc44b245	-0.012005393
55	0x3e9588ee	0.29206032
56	0xbe172014	-0.1475833
57	0xbef1fc41	-0.47262767
58	0x3ed88d42	0.4229527
59	0x3edf0b07	0.435631
60	0xbeee50ee	-0.4654612
61	0x3efd5584	0.49479306
62	0xbee5c29b	-0.44875035
63	0xbe5350b2	-0.20636252
64	0x3e98d969	0.2985337
65	0xbe527072	-0.20550707
66	0x3dd2c75c	0.10291931
67	0x3dbf71bd	0.09347866
68	0x3eb602f0	0.35549116
69	0xbdb1b4af	-0.08677041
70	0xbcd02f68	-0.02541323
71	0xbe38061a	-0.17971078
72	0x3e1c41c7	0.15259467
73	0xbee6e858	-0.4509914
74	0xbec90679	-0.3926275
75	0x3ea51abb	0.32246956
76	0x3d7b35ad	0.061330486
77	0x3e601abe	0.21885201
78	0xbdcf0b63	-0.10109594
79	0xbea31b73	-0.3185688
80	0x3db3aa8e	0.08772765
81	0x3ec552c7	0.38539717
82	0x3c8c6d3c	0.01714193
83	0x3ed14634	0.40873873
84	0xbe7e65f8	-0.24843585
85	0xbe28e5a3	-0.1649385
86	0x3da640bd	0.081178166
87	0x3ec6ec92	0.38852364
88	0xbe734496	-0.23756632
89	0xbe187eaf	-0.14892076
90	0x3e116c53	0.14201479
91	0xbf1b69d6	-0.6070837
92	0xbea4ba2e	-0.32173294
93	0xbd0c7057	-0.034286823
94	0x3f4af9f6	0.7928766
95	0x3e8c347b	0.2738379
96	0x3eed0c14	0.46298277
97	0xbf3e073b	-0.7422978
98	0x3dc1d849	0.09465081
99	0x3ea6929f	0.32533738
100	0x3e0c28dc	0.13687462
101	0xbda64c66	-0.081200406
102	0xbe20e092	-0.15710667
103	0x3df7c1e1	0.12097526
104	0xbcd9d231	-0.026589485
105	0xbe92ec93	-0.28696117
106	0x3e1bd007	0.15216075
107	0x3e831a76	0.25606126
108	0xbefaeb18	-0.49007487
109	0xbe761dfe	-0.24034879
110	0x3e48cae8	0.19608653
111	0xbeaa38a8	-0.3324635
112	0xbd87cb1f	-0.06630539
113	0xbd037483	-0.032093536
114	0xbe932539	-0.28739336
115	0xbe7dfa73	-0.2480257
116	0x3edd61e3	0.43238744
117	0xbed320da	-0.41236
118	0x3e8a5bb4	0.2702309
119	0x3e07f247	0.13276015
120	0xbeef8efe	-0.46788782
121	0xbd929893	-0.071580075
122	0xbe57d925	-0.21078928
123	0x3e70356c	0.23457879
124	0x3cacf8ab	0.021114668
125	0x3ee28dfc	0.4424895
126	0x3dedb2a0	0.11606336
127	0x3e8b25ca	0.27177268
128	0xbd6f1516	-0.05836972
129	0xbec10bdd	-0.37704363
130	0x3e38f7ea	0.18063322
131	0xbe9fe0f2	-0.31226307
132	0x3da27385	0.0793219
133	0xbebad217	-0.3648841
134	0x3ecd562c	0.40104806
135	0x3d80034f	0.06250631
136	0x3ea3a82d	0.31964245
137	0x3e895d73	0.2682911
138	0x3cc81d1c	0.024427943
139	0x3f0e1c03	0.5551149
140	0x3c680ee9	0.014163711
141	0xbeb94f15	-0.36193147
142	0xbed4b998	-0.41547847
143	0xbdb0b923	-0.08629062
144	0xbf0182ce	-0.5059022
145	0xbce764fa	-0.028246392
146	0xbd8bdbbe	-0.06829022
147	0x3ea7a59b	0.32743534
148	0xbe304e1e	-0.172173
149	0xbed0b5ec	-0.40763795
150	0x3ef1cc45	0.47226158
151	0xbd02324a	-0.03178624
152	0x3e80c7cd	0.25152436
153	0xbf052fbf	-0.5202598
154	0x3e8370a5	0.25671878
155	0xbe2b2445	-0.16713054
156	0x3ec2f2ef	0.3807597
157	0xbee1cc1b	-0.44101033
158	0x3dceaeeb	0.10091957
159	0xbed662ce	-0.41872257
160	0xbd62677b	-0.055274468
161	0xbf091a77	-0.5355601
162	0xbd17aaa6	-0.037027977
163	0x3e85fe73	0.26170692
164	0xbe25ba7b	-0.16184418
165	0x3edbeecb	0.42955622
166	0x3e94afb3	0.29040298
167	0xbf003d1c	-0.50093246
168	0x3f2f9ad5	0.6859563
169	0xbf1c379d	-0.6102236
170	0x3eebf0f7	0.4608228
171	0xbe80c7ac	-0.25152338
172	0x3e6cf198	0.23139036
173	0xbd38be72	-0.045103498
174	0xbe58e422	-0.21180776
175	0xbe99073d	-0.29888335
176	0xbdf91b09	-0.1216336
177	0x3d953cfa	0.07287021
178	0xbeae9abb	-0.34102425
179	0xbe2de834	-0.1698311
180	0x3e2599a3	0.16171889
181	0x3e9e8e14	0.30967772
182	0x3efce995	0.4939696
183	0x3e8060c2	0.2507382
184	0x3ed48c3f	0.4151325
185	0x3dd2fe25	0.103023805
186	0x3e295023	0.16534476
187	0x3e496326	0.19666728
188	0x3ede5930	0.4342742
189	0xbdc730df	-0.09726118
190	0xbeeb1cd6	-0.45920438
191	0x3ed1070a	0.40825683
192	0xbe50c5f2	-0.2038801
193	0x3d40786d	0.046989847
194	0x3ef09ce9	0.46994713
195	0xbede5162	-0.43421465
196	0x3d9f35be	0.077739224
197	0x3d2de32f	0.042452987
198	0x3e54baef	0.20774435
199	0xbeac670a	-0.33672363
200	0xbe009632	-0.12557295
201	0xbd9ed261	-0.0775497
202	0x3e1a3e57	0.15062843
203	0xbba5f7a1	-0.00506492
204	0xbc4cb570	-0.01249443
205	0x3efe490e	0.4966511
206	0x3ea768db	0.32697186
207	0x3e26e71c	0.16299099
208	0xbe2bf32d	-0.16791983
209	0x3f0ea038	0.55713224
210	0x3d7f1db2	0.06228418
211	0x3e794d42	0.24345878
212	0x3e183299	0.14863051
213	0xbd608977	-0.054818597
214	0x3e45f8a7	0.19333135
215	0x3e3cb8f6	0.18429932
216	0x3efca7e1	0.4934683
217	0x3d7f61de	0.062349193
218	0x3e76f7a6	0.24117908
219	0xbcfead98	-0.031088635

model_12/dense_64/MatMul_bias f4 [10]
0	0xbce379bd	-0.02776801
1	0xbc797ef4	-0.015228022
2	0x3b5c21db	0.0033589515
3	0xbaeda442	-0.0018130618
4	0xbcb6452c	-0.02224978
5	0x3c9c1bd0	0.01905623
6	0x3d513341	0.05107427
7	0x3bf3fdc2	0.007446022
8	0xbc1bbb16	-0.009505054
9	0xbbe564f9	-0.0070005623

model_12/dense_65/MatMul/ReadVariableOp/transpose f4 [10, 22]
0	0x3c464ac4	0.012102786
1	0xbe3b00a1	-0.18261959
2	0xbed57882	-0.41693503
3	0x3e08eb90	0.1337111
4	0xbeee6b67	-0.46566316
5	0xbe8d6b4b	-0.2762092
6	0xbea0f31a	-0.31435472
7	0x3e946e1b	0.28990254
8	0xbe97e484	-0.2966653
9	0x3d985770	0.074385524
10	0xbe18579e	-0.14877173
11	0x3e571a36	0.21006092
12	0x3e9388c6	0.28815287
13	0xbf06cc30	-0.52655315
14	0x3ec1fdf0	0.3788905
15	0x3e153316	0.14570269
16	0xbe79eb25	-0.24406107
17	0xbd47ab1a	-0.04874716
18	0x3e99d0d6	0.30042142
19	0x3ebb6c1c	0.36605918
20	0xbe9091f8	-0.28236365
21	0x3f130eea	0.5744463
22	0xbec96bb5	-0.39339986
23	0xbf4fbf73	-0.81151503
24	0x3ede9e84	0.43480313
25	0x3ed9ea92	0.42561775
26	0xbdd91f74	-0.10601702
27	0x3f1028ca	0.5631224
28	0xbec9185b	-0.39276394
29	0x3e1c3aae	0.1525676
30	0xbeca2838	-0.3948381
31	0x3e42c6d6	0.19021162
32	0x3e3cc682	0.184351
33	0xbed60e1e	-0.41807646
34	0x3ea1fdb8	0.31638885
35	0x3e8b254d	0.27176896
36	0xbbb16d17	-0.005414616
37	0xbe5446cf	-0.20730136
38	0xbec857dd	-0.39129534
39	0x3d795ed4	0.06088145
40	0x3e8db195	0.27674547
41	0x3db0690a	0.086137846
42	0xbe018dc7	-0.1265174
43	0xbe80c069	-0.25146797
44	0x3e9696fa	0.2941206
45	0x3ed42a61	0.41438583
46	0xbe0a8f23	-0.13531165
47	0x3f1563f9	0.5835567
48	0x3e94b865	0.29046932
49	0x3e0fda34	0.14048082
50	0x3e7909da	0.24320164
51	0x3dba937d	0.091101624
52	0x3eee6d2b	0.46567664
53	0x3eacecf0	0.3377452
54	0xbee09880	-0.43866348
55	0x3e786769	0.24258198
56	0xbe2f3350	-0.17109418
57	0xbef9c344	-0.48781788
58	0xbe643844	-0.22287089
59	0xbe3329c1	-0.17496397
60	0xbe5637cc	-0.20919722
61	0x3e7175d6	0.23580107
62	0xbcc067d0	-0.023487002
63	0xbe7f84fa	-0.2495307
64	0xbecec28b	-0.403828
65	0xbeab90f9	-0.33509043
66	0xbe817196	-0.25281972
67	0xbc9b771e	-0.018977698
68	0xbe76f3b1	-0.24116398
69	0xbe090a37	-0.13382803
70	0xbe6eaa34	-0.23307115
71	0x3e587f9b	0.21142428
72	0xbe4bb5cd	-0.1989357
73	0x3ebe97db	0.37225232
74	0x3e6f8b10	0.23392892
75	0xbdd66174	-0.104678065
76	0xbece8c8f	-0.40341613
77	0xbc989c93	-0.018629348
78	0x3db323b0	0.08747041
79	0x3ca1a82d	0.019733513
80	0xbe4b6f3c	-0.19866651
81	0xbe8f1541	-0.27945903
82	0xbed9c8ad	-0.42535916
83	0xbea1f69a	-0.31633455
84	0xbee71f14	-0.45140898
85	0x3e3f1c31	0.18663098
86	0x3df0baad	0.117543556
87	0x3e84a250	0.25905085
88	0x3d5b63bf	0.053561922
89	0x3dbae451	0.09125579
90	0xbc0dbf2e	-0.008651538
91	0xbe8ccb72	-0.27498966
92	0x3ecf2fee	0.40466255
93	0xbe9a94c5	-0.30191627
94	0xbdf1e126	-0.11810522
95	0xbef4a308	-0.47780633
96	0x3effae5f	0.49937722
97	0x3e92933b	0.28627953
98	0x3ec4c510	0.38431597
99	0xbecd9fca	-0.40160972
100	0x3e295acc	0.16538543
101	0x3ebfad86	0.37437075
102	0x3e06c8a3	0.13162474
103	0x3edfa29d	0.43678752
104	0xbe8185e9	-0.25297478
105	0x3d9a2962	0.075274244
106	0x3daa6041	0.0831914
107	0x3e8fe4f2	0.2810436
108	0x3e869fb2	0.26293713
109	0xbed924e4	-0.42410958
110	0x3efbd1a7	0.4918339
111	0xbe01b2b0	-0.1266582
112	0xbed52862	-0.41632372
113	0xbb93ba68	-0.0045083053
114	0xbe5fb860	-0.21847677
115	0xbbf8b7fd	-0.0075902925
116	0xbeb46b67	-0.3523819
117	0xbe63f90e	-0.22262976
118	0xbe811434	-0.25210726
119	0x3eaf0915	0.34186617
120	0xbdb8eb3c	-0.090292424
121	0xbe9fa513	-0.3118063
122	0x3e660d52	0.22466019
123	0x3eebe5ab	0.4607366
124	0xbe7c90d7	-0.24664627
125	0x3deb6d64	0.11495474
126	0x3ec627dd	0.38702288
127	0xbe45aea5	-0.19304903
128	0xbe8bed9a	-0.27329713
129	0x3eca5624	0.39518845
130	0xbe1a0423	-0.1504064
131	0xbe751e89	-0.2393743
132	0x3de409f5	0.11134712
133	0x3e5fb0d3	0.21844797
134	0x3ea19da3	0.3156558
135	0xbe09aa8d	-0.13443966
136	0xbd6c25b2	-0.057653137
137	0x3ce864d4	0.028368391
138	0x3ed265fc	0.41093433
139	0x3e20957e	0.15682027
140	0x3e1845dd	0.148704
141	0x3eb41866	0.35174865
142	0xbead0cb9	-0.3379877
143	0xbe842e23	-0.2581645
144	0xbe4b6755	-0.19863637
145	0xbd86a287	-0.065739684
146	0x3ebbb711	0.36663106
147	0x3eb040d2	0.34424454
148	0x3e8b3bc2	0.2719403
149	0x3ef2d3e6	0.4742729
150	0x3f087b7a	0.5331341
151	0xbbdd8428	-0.006760139
152	0x3e6b8be9	0.2300259
153	0x3e867155	0.2625834
154	0xbeced684	-0.40398037
155	0xbca317b7	-0.019908769
156	0xbd6edcfe	-0.058316223
157	0xbe6625b5	-0.22475322
158	0x3f32baee	0.6981648
159	0x3e39125c	0.1807341
160	0x3edd299e	0.43195814
161	0xbe27e0a0	-0.16394281
162	0x3e7d81da	0.24756566
163	0x3e98194a	0.29706794
164	0xbeb49b99	-0.35274962
165	0x3c914a12	0.017735515
166	0xbf00e318	-0.5034652
167	0xbe1147aa	-0.14187494
168	0xbebe7e56	-0.37205762
169	0xbef61078	-0.4805944
170	0xbebc97eb	-0.36834654
171	0xbde52de7	-0.11190396
172	0xbe800081	-0.25000384
173	0xbf176e68	-0.5915284
174	0xbead4706	-0.3384325
175	0x3e6a83c6	0.2290183
176	0x3e72c588	0.23708165
177	0x3f04b58e	0.5183953
178	0xbe5c4adb	-0.2151293
179	0xbf083cdc	-0.53217864
180	0xbde0ad07	-0.10970502
181	0xbe8eeed8	-0.27916598
182	0x3d8eb10f	0.06967365
183	0x3ef5bf44	0.47997487
184	0x3cdc519b	0.026894381
185	0x3e4c0ba6	0.19926319
186	0x3e49d745	0.19711025
187	0xbe3c8da0	-0.184134
188	0xbe9e6f38	-0.30944228
189	0xbee9b7a2	-0.45647913
190	0xbec306d7	-0.38091156
191	0x3e079d0a	0.132435
192	0x3d68a5f7	0.0567989
193	0xbeb8e3ac	-0.361112
194	0x3e6d3aff	0.23167036
195	0x3e19d7ad	0.1502368
196	0x3e014a82	0.12626079
197	0xbe426242	-0.18982795
198	0x3cfcf03a	0.030876268
199	0x3f0d7379	0.5525432
200	0xbd508a60	-0.050913215
201	0xbe48243e	-0.19545075
202	0xbed30e4a	-0.4122184
203	0x3ea2cc49	0.31796482
204	0xbeb050d0	-0.34436655
205	0x3ecbedff	0.39830014
206	0x3e1f600e	0.15563986
207	0xbef74b66	-0.48299712
208	0x3dba3e9e	0.090939745
209	0x3ee39865	0.44452205
210	0xbed52514	-0.4162985
211	0xbe749c62	-0.2388778
212	0xbd893d99	-0.06701202
213	0x3e5cd127	0.2156416
214	0xbe2bcdab	-0.16777675
215	0x3ec749b6	0.38923424
216	0x3e885af3	0.2663189
217	0xbeceff2c	-0.40429056
218	0x3e8e8f2b	0.27843603
219	0x3ed813a6	0.4220249

model_12/dense_65/MatMul_bias f4 [10]
0	0xbc0685a7	-0.008210576
1	0xbcda0500	-0.026613712
2	0x3c8ace6f	0.016944138
3	0xbcc75527	-0.024332596
4	0x3b8f6315	0.004375825
5	0x3c8cead8	0.017201826
6	0x3c818f50	0.015815407
7	0xbc117f62	-0.008880468
8	0xbb5119ba	-0.0031906203
9	0x3c111978	0.00885617
